experiments/exp_20250826_212705/best_model.pth (torch, 716550 bytes, 97 tensors)

spatial_encoder.feat_proj.weight f4 [64, 8]
00000000: 6b84 953e 7f31 a13e a7ba b3bd b25d a13e
00000010: 88f2 86bd 1ada 7c3d 1b3b 50be eba7 333e
00000020: 2a61 ba3e 17ba b3be b75b 913e 81d0 933d
00000030: 2733 963e 51b8 5c3d a12c 473e d708 2fbd
00000040: 660f a03e ee10 843d a14b 09be 776e 413d
00000050: 8580 42be c9c3 acbd fe8c 22be 288a 6b3e
00000060: c2cd a1be 3f4c 2ebe 88a0 f8bc c6e6 6cbe
00000070: d576 573d c765 bcbe 8643 c13e 7114 86be
00000080: 629e 903e 2cc8 513d a0d0 b9bd 1432 513e
00000090: 01c0 413d 84fe 8a3e 3a82 a63c e2d0 e6bd
000000a0: f95b a03d cbfe 19be 9614 df3d 8c69 a23e
000000b0: c0d1 433e 15af 1cbe 3590 403e aff7 583d
000000c0: 17d4 2c3e d820 80be bbec a9be 7476 efbd
000000d0: f68c 86be 569b 9e3e 8506 d93d b852 193e
000000e0: 4bad 033e 9122 d73c 08a0 8e3e ba6a 88be
000000f0: f433 013d 755a 83be 16c8 e33d 22cd 01be
00000100: 2137 bf3d fd17 73bd 2eed 883e a363 65be
00000110: e94b 3bbe 89bd 66be c417 b33e 204e 0b3e
00000120: 40b7 a73e 1d86 a9be 170d aabe 2fb6 93be
00000130: 56b3 87be f675 063e 1039 0e3e dd66 9f3e
00000140: ae1b 3abe 2e73 48be 8b04 1e3e 620c 08be
00000150: e3b1 7f3e f13e 97bd c8c9 573e 3358 92be
00000160: a87c 5bbe 9f76 153d 860b 8c3d ae15 a4bd
00000170: c0c8 1f3e c730 803e 902d 74be 3377 31be
00000180: 4613 a03e 3686 50be f18d fcbd 7473 afbe
00000190: c456 3cbe 16b0 b33d c82f 15bd 1614 68be
000001a0: 1a96 c83d c755 4dbe ba1f 7fbe 269d 3abe
000001b0: bb33 79be c9c6 59be 9a17 b93e 7027 0c3d
000001c0: 636a ce3d 59a6 cdbe 8abc 47be 6a17 ffbd
000001d0: 2676 763d 59cd a2be c65a fdbd 15ab 44be
000001e0: 65af 043b 4ff1 38be 7c08 12bd 04de 76be
000001f0: a125 73be cbc0 54be 829c f9bd da56 8ebe
00000200: 7eae a13e df54 93bd 20c1 8b3e f1a2 e63d
00000210: 79ef 9bbe 930e 7d3e af5a c7bd 50d6 0bbe
00000220: 5bbc a3be e5dc d4be 7750 cb3d a2b2 93bd
00000230: 83bd 193e 26f0 91be 8df7 883e 8b28 79be
00000240: c0fb 5dbd eded 9e3d 4de2 293e f5d2 8f3e
00000250: 98b0 9d3e 56d9 91be d36b df3d 3e6c 18be
00000260: a80a 60bb 300f 6abe 35c6 913e 39f2 76be
00000270: 0adc 563e f701 123e cbae ba3d 4cce 72be
00000280: be62 a93e 9070 c63d 32e6 5e3d e636 a4be
00000290: 7115 133e c5c6 7ebd 075c 26be 96a0 953e
000002a0: c8ca aa3d cd57 4dbe 2ef9 34be d65a 50bc
000002b0: 7163 223e a37d b0bd b8dc 4dbe 12c1 d2bd
000002c0: 7335 b9be d846 d63d 7416 8b3e 2b98 c0be
000002d0: 528b 4d3d 47ad 0e3e 9e8d d13d 40da aebd
000002e0: fc7a 5b3e c9fa 813e 971b ec3d 5851 7bbd
000002f0: ddbd 83bd 4214 1e3d 6b03 93bd 2611 f1bd
00000300: 90ee 783e e057 cd3e 639c 8cbc f2c9 c7bd
00000310: 0af3 253d 04cf 21bd 9a07 b13d 005d bd3d
00000320: 5912 adbe ac92 31be 018e 8a3e dd49 063e
00000330: 012c d4bc 4805 61be 7dae 32be 05b7 98be
00000340: 4029 d2bd 1738 f33d 7082 4c3e b6a6 373e
00000350: b121 a9be b237 49be ce4b 9bbd 68d9 b13e
00000360: 37ad 123d e239 96bd 8d34 fd3d 230b 0bbe
00000370: 5826 76be ad8c 833e 7c6d 30be aa29 41bd
00000380: 8c8e a5be 6501 943e 281f 7c3e b11b 1a3e
00000390: 0100 81be b692 a7be 4c89 94be abe8 6d3e
000003a0: 172c 413e 7b6c aa3e 290f 3c3e bec3 ae3d
000003b0: 11cb b53c 12ca 8bbe 5e50 9fbe 447f abbe
000003c0: 0c5c 893e ff3b e1bd c8b9 d8bc 6090 4cbe
000003d0: f23e 09bd 3606 7bbe b45c 5dbe 2c1e b63d
000003e0: 4ad5 ffbd a38f 873e a684 e6bd 42d3 77be
000003f0: 7d3d 5cbd ffbd 1dbe f25e cebd b550 a6be
0.2920259 0.31483075 -0.087758355 0.31516796 -0.06589228 0.061731435 -0.20335047 0.17544524
0.36402255 -0.35102913 0.28390285 0.07217503 0.293359 0.053886715 0.19450618 -0.04273304
0.31261748 0.064485416 -0.13407756 0.047224488 -0.18994339 -0.084357806 -0.15874097 0.23001921
-0.31602293 -0.17021273 -0.030349985 -0.23134908 0.05260356 -0.367964 0.3774683 -0.2618747
0.28245836 0.05121629 -0.09072995 0.2042926 0.04730225 0.27147305 0.020325769 -0.1127031
0.078300424 -0.15038602 0.10892598 0.3172115 0.19122982 -0.15301163 0.1880501 0.052970584
0.16877781 -0.25025058 -0.33188424 -0.11692515 -0.2627942 0.30977887 0.105969466 0.14972961
0.12859075 0.0262616 0.2785647 -0.26643926 0.031543687 -0.2565495 0.11122148 -0.12675908
0.09336687 -0.05934905 0.26743454 -0.2240129 -0.18290676 -0.2253324 0.3497907 0.13604021
0.32756996 -0.33110133 -0.33213112 -0.28849933 -0.2650401 0.13130936 0.13888955 0.31133166
-0.18174621 -0.19575188 0.1543142 -0.13285974 0.24970202 -0.07385052 0.21073067 -0.28582916
-0.21434271 0.03649008 0.068381354 -0.080119476 0.15603924 0.25037214 -0.23845506 -0.17330627
0.31264704 -0.20363697 -0.12331761 -0.3426777 -0.18392473 0.0877382 -0.03642252 -0.22663912
0.097942546 -0.20052253 -0.24914446 -0.1822401 -0.2433614 -0.21267237 0.3615082 0.034217298
0.100788854 -0.40165976 -0.19505516 -0.12455638 0.06017127 -0.31797293 -0.12370829 -0.19205888
0.0020246145 -0.18060802 -0.035652623 -0.2410813 -0.23744823 -0.2077667 -0.121880546 -0.27800637
0.3157844 -0.07193922 0.2729578 0.11261547 -0.3045614 0.24712591 -0.097340934 -0.13655972
-0.3197964 -0.4157478 0.09927457 -0.07211806 0.15013699 -0.2850353 0.26751366 -0.24331872
-0.054195166 0.077602245 0.16590233 0.28090635 0.30798793 -0.28486127 0.10909238 -0.14885041
-0.003418604 -0.22857356 0.28471532 -0.24115838 0.20982376 0.14258562 0.0911537 -0.23711509
0.33083147 0.09689438 0.05441875 -0.32073134 0.14363648 -0.06220128 -0.16246043 0.2922408
0.08339459 -0.20053025 -0.1767318 -0.0127169695 0.15858246 -0.08617713 -0.20103729 -0.102907315
-0.3617359 0.10462731 0.27165568 -0.37616095 0.050181694 0.13933288 0.102320895 -0.08537722
0.21433634 0.25386646 0.115287 -0.061356872 -0.06432698 0.038593538 -0.07178386 -0.11770849
0.24309754 0.40106106 -0.017164415 -0.09755315 0.040514983 -0.039504066 0.08644028 0.09246254
-0.3380306 -0.17341107 0.27061465 0.13114114 -0.025899889 -0.21974671 -0.17449374 -0.29827133
-0.10261774 0.11875933 0.19971633 0.17934689 -0.33033517 -0.19650152 -0.07582818 0.3473618
0.03580972 -0.07335259 0.12363539 -0.13578467 -0.24038064 0.25693265 -0.17229265 -0.047158875
-0.32335317 0.28907314 0.2462126 0.15049626 -0.25195315 -0.3272912 -0.29011 0.23233287
0.18864475 0.3328589 0.18365158 0.085334286 0.022191556 -0.27302605 -0.31116003 -0.33495533
0.2682804 -0.109977715 -0.026455775 -0.1997695 -0.033507295 -0.24514088 -0.21617395 0.088924736
-0.124918535 0.26476774 -0.112557694 -0.24201682 -0.053769577 -0.15404509 -0.10076703 -0.3248345

spatial_encoder.feat_proj.bias f4 [64]
00000000: 0203 b93d b8dc 84be e2d6 80be 61b1 8ebe
00000010: f71b 983e 9aea adbe 7dbc 903e 13f8 a9bc
00000020: 55c9 22bd 926f 643e abf3 f2bc d8be 743e
00000030: 9eb8 843e 6849 9abe db61 163e 8750 883d
00000040: fe27 a43d 1999 5a3d c776 d93d aa48 31be
00000050: 2c85 4ebd 766d af3e 6a10 6c3e d7bd 9ebc
00000060: a23b b3be 372f 083d 79af 78be 61ae 8e3e
00000070: db6a 52be afd9 0cbd 5819 94bd 5ae6 923d
00000080: dd05 ad3e c856 fa3c eebf 3d3e 89fa 8e3e
00000090: 9de3 863e bacf f4bd bd98 b8bd 04ee 323e
000000a0: 39d8 a6bd 90c6 263e ce47 aebd 854c 58be
000000b0: 20d6 fd3d 4663 693d 2db6 273e 9ffe ad3e
000000c0: f092 7b3e db03 a63e b596 af3c ac1d 9dbe
000000d0: 98d5 78be 960d 68be 5511 9ebe 1590 39be
000000e0: 2170 a5be 6497 acbe f1e2 50be c3d2 b7be
000000f0: 33d1 7ebe ba97 d93d e028 923e a3ec f1bd
0.09033777 -0.25949645 -0.25163943 -0.27869704 0.29708835 -0.3396805 0.28268805 -0.020748174
-0.039742786 0.22308186 -0.029657206 0.23900926 0.25922102 -0.3013413 0.14685766 0.06655984
0.080154404 0.05336866 0.10618358 -0.17312875 -0.05041997 0.342632 0.23053136 -0.019377632
-0.35006434 0.033248153 -0.24285688 0.27867416 -0.20548575 -0.034387287 -0.072313964 0.07172842
0.33793536 0.030558959 0.18530247 0.27925518 0.2634553 -0.11953683 -0.090135075 0.17473608
-0.0814671 0.16286683 -0.085097894 -0.2112294 0.12394357 0.05697944 0.16378088 0.33983323
0.24567771 0.32424816 0.021434167 -0.306867 -0.2430023 -0.22661433 -0.30872598 -0.18121369
-0.3231211 -0.33709252 -0.20399071 -0.35902986 -0.2488449 0.10624643 0.2854681 -0.11812713

spatial_encoder.pos_encoder.0.weight f4 [32, 4]
00000000: 6624 9bbd 7702 5d3e ed1a 1abf f50d 98bf
00000010: aaba 9d3e a00d dfbe 306b 7a3d 5225 e23e
00000020: 3f27 193e efcf de3c 118a 1abf bdfb 71bf
00000030: 6783 02bd d44e 463e 50a6 0a3f d255 b03f
00000040: 9867 c3be c08e 753c 54d0 7fbe 2a83 cabe
00000050: 2f2a dabd 264e aebe 36b0 703f aa81 733f
00000060: 201f 37be 5f43 f63d 4cee 35bf ce77 68bf
00000070: df45 b1bd 67c3 22bf d446 0bbf fa2c 5cbf
00000080: 8295 dd3e dba1 cb3e 2b85 4bbc ac2b 9fbf
00000090: 0a7b a7be d268 df3e 741a 353e 80a4 593c
000000a0: 333c 94bb 717a b0be f837 443e 3799 b73f
000000b0: 2f52 6abd 4182 a9bd d10f 44bf c70f 9cbf
000000c0: 76da 7abd db5e 4cbe 8a2d 843e 6382 913f
000000d0: d469 fabe f811 183e f044 a9be d4e1 79be
000000e0: d08f 443e 008d cb3e 1cef 0bbe 1c36 52be
000000f0: 9b83 e7be 5d0d 84be 4395 e0be a598 e9bd
00000100: e6b0 cf3d 7b53 efbe 128b df3e 41e2 9f3e
00000110: ef73 dfbe 254d adbe 7655 66be ffeb 8abf
00000120: fae2 eebd af5c 25be cdd0 723f 7264 1c3f
00000130: 8802 be3e 4ccf 213e 1325 d83e 2c23 a73f
00000140: 0780 aabd 0e8d 96be 1f12 a6bd b1c4 d43e
00000150: a748 abbe bbf1 74bd 0647 3cbf 7ad7 09bf
00000160: 96e2 133e 9638 093e 76b6 153f 8e89 723f
00000170: 88a8 8d3e a4a7 cabe 8060 96bd 7421 633e
00000180: daed fe3e 7a67 823e 1a28 babe 88e3 c43e
00000190: a859 e4bd 88a3 dabd 4eae e8be 3831 a1bd
000001a0: d629 d03e 833e f9bb dd08 29bf e169 48bf
000001b0: 802b 24be fab9 e93e 4632 debe 70ba 21be
000001c0: d42f f7be 1ca4 49be 2468 213e ea6d f63e
000001d0: 0098 6a3d e21c 223f cc77 e53e acd8 9d3f
000001e0: 01dd f73e 7aa7 c23e a8ba 12bf 25dc c7be
000001f0: 1d5f b13e 0f48 aabe 7c58 1abf ef85 adbf
-0.07575302 0.21582972 -0.60197335 -1.1879259 0.30806476 -0.43565083 0.06113738 0.44169098
0.14956377 0.02719876 -0.6036692 -0.9452475 -0.031863596 0.19366008 0.5416002 1.377619
-0.38164973 0.0149876475 -0.24981815 -0.39553195 -0.10652577 -0.34043998 0.94018877 0.95119727
-0.17882967 0.12024569 -0.7106674 -0.9080781 -0.08655905 -0.6357941 -0.5440495 -0.8600613
0.43278128 0.39771923 -0.012421886 -1.2435203 -0.3271106 0.4363466 0.17685872 0.013283849
-0.004523778 -0.34468415 0.19161975 1.4343632 -0.057207283 -0.08276797 -0.76586634 -1.2192315
-0.061243497 -0.1995806 0.25815994 1.1367916 -0.48908865 0.14850605 -0.33060408 -0.24402553
0.19195485 0.39756012 -0.13665432 -0.20528454 -0.45217595 -0.25791445 -0.43863878 -0.11406068
0.101411626 -0.46743378 0.4366079 0.31227306 -0.43643138 -0.3384792 -0.22493538 -1.085327
-0.11664386 -0.16148637 0.94849855 0.6109077 0.37111306 0.15801734 0.42215785 1.3057609
-0.083252005 -0.2940449 -0.08108925 0.41556314 -0.33453867 -0.059800845 -0.73545873 -0.53844416
0.14441904 0.13400492 0.5848154 0.9474114 0.27667642 -0.39581025 -0.07342625 0.2218073
0.4979084 0.2546957 -0.3635872 0.38454843 -0.11149913 -0.10675722 -0.45445484 -0.07870716
0.40656918 -0.007606329 -0.6602915 -0.7828656 -0.16032219 0.456497 -0.4339773 -0.15793777
-0.48278677 -0.19691509 0.15762383 0.48130733 0.057273865 0.6332532 0.4481796 1.2331748
0.484108 0.380184 -0.57316065 -0.39035144 0.34642878 -0.332581 -0.60291266 -1.3556498

spatial_encoder.pos_encoder.0.bias f4 [32]
00000000: 3315 273e 2880 cfbe 53e9 493e fe84 213e
00000010: d269 debe 574f b93b 90c1 cb3d b6a1 693e
00000020: 84c5 8c3e 4a80 febe 2fa5 ea3e 2be4 d43e
00000030: cd5b 4b3e 5af9 e9be a4e5 36be 3a6b 12be
00000040: 1a37 06be eabe 973e df63 113c eeb3 ca3e
00000050: a4e0 2abe f17a 363e f0ed 353e ac24 d5be
00000060: 3853 f8be ead5 84be b619 b13e 8003 f1be
00000070: c0d4 debe 8f32 8f3e 3277 893e a178 d83e
0.1631668 -0.40527463 0.19717912 0.15773389 -0.4344011 0.00565521 0.099490285 0.22815594
0.27494442 -0.49707252 0.4582915 0.41580328 0.19859238 -0.45698053 -0.17861038 -0.14298716
-0.13106957 0.29637843 0.008873909 0.395904 -0.16687256 0.17820336 0.17766547 -0.4162954
-0.4850099 -0.25944453 0.34589928 -0.47072983 -0.4352169 0.2796826 0.2684875 0.42279533

spatial_encoder.pos_encoder.2.weight f4 [64, 32]
00000000: 8a72 5dbf ee7c 04be 3e55 14bf 8195 753f
00000010: 2e9f d83d 820e 363f 7bc9 b3be 6d7a a7be
00000020: 8bfb 35bf ad5e a4bd f328 5b3f 563c 55bf
00000030: 39bb 223f 7b24 043e 6076 643d 8c06 6a3d
00000040: 209d 8abd 0fa7 0dbf 02a7 1e3f 63e8 243f
00000050: c39a 183b 6192 21be faca 053f 41cd 2f3e
00000060: dbe0 b4bd 88e0 2dbd fe0f 14bf fcec ebbd
00000070: bca0 31be ba81 463f 1914 9bbd 6098 72bf
00000080: 4202 68bf e9e9 323e 2f55 23bf 1ca9 713f
00000090: 679b d8bd 6cb0 1f3f 5c5e 15bf f727 24bf
000000a0: e0cd 1abf c09c 6e3c 623d 363f e183 4dbf
000000b0: 5d71 403f 877e 8fbd 4871 3c3d f891 883d
000000c0: 2bf0 bcbd 016c 5cbf 89ad 173f ca13 623f
000000d0: 91b6 b7bd 8f37 69be 67f1 263f 7ea5 f43d
000000e0: 2aac b73d a1c4 17be d7e8 debe 4071 26be
000000f0: 2293 c8bd dc02 3a3f 159e 8cbe 9780 26bf
00000100: 2e08 51bf 4ccc 8f3d 20be 60bf 3bbe 743f
00000110: 0e08 61bd 9879 153f c4b9 d7be 3073 e4be
00000120: dad7 08bf 6c21 ddbd c607 393f ef99 3bbf
00000130: f055 593f 9e31 8b3d cab6 c63d 2104 24bd
00000140: 377a d33d 337e 01bf 2b8e da3e 6669 6d3f
00000150: e308 b23d 6643 cdbd c7cc 173f 27c7 b2bd
00000160: e45b 51bd 40eb 123c ed18 e9be a2ac cebd
00000170: 8e41 b53d 4008 2b3f fba0 4fb9 06ee 57bf
00000180: da2f e33e d535 c7bd a8ce d13e c88a 11bf
00000190: aec3 f2bd 1d4f 15bf 5f0e 9d3e d726 6f3e
000001a0: 6dd8 133f 63c0 30be 954c 3ebf 94ff d03e
000001b0: b4b2 2abf c6e3 83bd b85d cf3c 0107 06bd
000001c0: 4fcf 9a3d b58e 0d3f af01 98be e251 2abf
000001d0: 47a0 2abe 9152 423e fe04 15bf 9e3b b83d
000001e0: 7204 f23d 4ea5 8b3d b7ad 143f 77ee 2b3e
000001f0: e850 193d c493 23bf 8f83 7c3e 3636 0c3f
00000200: 76e7 45bf 1d79 173e 43c3 f7be f798 4d3f
00000210: 408d 353c 720e 053f ad66 bcbe b4df 75be
00000220: 5c1e 0cbf f0f9 773c f044 2d3f a2c0 36bf
00000230: 25f2 513f 709c 323c 7288 eb3d 7d0d 00bd
00000240: 6353 b03d ad2b d3be f12a f73e c2fc 4e3f
00000250: ef8c e53d f2b2 f3bc 95d2 393f e824 39bd
00000260: 2f41 19be bc5f 043d 0762 f7be 94db 3cbd
00000270: 1880 f2bc 889a 173f 1eb4 753c 3baf 28bf
00000280: 54c1 6bbf 1ce1 94bd 415d 52bf 131a 5e3f
00000290: d7c6 223e 5230 5e3f 3714 d1be fbe9 21bf
000002a0: 70f4 18bf a015 7b3d 7521 2c3f e0a8 53bf
000002b0: 17b5 553f 7bfa cabd 2376 0cbe 444b 203e
000002c0: 97bd 153e bd82 26bf 71a5 363f 6aba 553f
000002d0: 9fa7 f7bc f347 a3be a71a 413f d416 0ebd
000002e0: a49f 15be 1488 423d ea93 39bf e0a7 d23b
000002f0: 4b7d 303e 8c42 3e3f 0f8e 5bbe c78f 48bf
00000300: 85e2 2f3f 40ba 78bc a8a3 563f 788d 69bf
00000310: ca80 01be a3a9 43bf b948 f13e 4400 053f
00000320: 0201 db3e 583e 923d 28e7 2cbf ad9c 313f
00000330: 8994 5dbf 9efb 63bd 64cb 98bd 5ab5 6bbd
00000340: 3cc9 23be b0fd 3e3f 0103 17bf e0cd 73bf
00000350: 4502 14be 602c de3e d9e2 4fbf 886e 95bd
00000360: ebe3 0d3e c63a c03d 3b79 203f 09e1 2bbe
00000370: 16cf 01be 186e 57bf 8748 873e 3258 523f
00000380: 42db 123f 0017 913a 4e7f ff3e 9b6c 51bf
00000390: 6c1a 47bd 9a34 f9be f15d e33e 6094 e93e
000003a0: 4f97 0e3f 2404 51bd 499f 1abf ad8c 423f
000003b0: a6cf 22bf 441d 8dbd d16f 1a3e fa3c d1bc
000003c0: d600 9bbd e07b 253f 421c 90be 1454 0ebf
000003d0: c5ee 523d c98a 423e 9ff0 09bf 6d4e 1b3e
000003e0: c98c 31be 5068 b3bc fe49 be3e 5cf0 063d
000003f0: d4bb 953d 9b2d 31bf 08a4 bf3d 2cf8 513f
-0.865029 -0.12938282 -0.5794257 0.9593125 0.10577236 0.7111589 -0.35114655 -0.3271059
-0.7108695 -0.080258705 0.8560936 -0.8329519 0.6356693 0.12904541 0.055776954 0.05713515
-0.067682505 -0.55333036 0.61973584 0.64417094 0.0023285605 -0.15778495 0.5226284 0.17168142
-0.0883195 -0.042450458 -0.578369 -0.115198106 -0.17346472 0.775417 -0.07572193 -0.94763756
-0.90628445 0.17472042 -0.63801855 0.94398665 -0.10576516 0.62378573 -0.58347106 -0.6412348
-0.6047039 0.014563739 0.7118741 -0.80279356 0.7517298 -0.07006555 0.04600647 0.06668466
-0.09225496 -0.861023 0.5924917 0.88311446 -0.08970369 -0.227751 0.652121 0.11945628
0.089683846 -0.14821102 -0.43537018 -0.16254139 -0.09793688 0.72660613 -0.27464357 -0.6503996
-0.81653106 0.070213884 -0.8779011 0.9560277 -0.054939322 0.5838866 -0.42133915 -0.4461913
-0.53454363 -0.1079739 0.72277486 -0.7328176 0.84896755 0.06796573 0.09702833 -0.040043
0.10326045 -0.5058319 0.4268659 0.9273895 0.08693101 -0.10022621 0.5929684 -0.087293915
-0.051113024 0.008967221 -0.4552683 -0.10091521 0.08850394 0.66809464 -0.00019801028 -0.8434757
0.44372445 -0.097270645 0.4097798 -0.5685239 -0.11853729 -0.5832384 0.30675027 0.2335466
0.57752115 -0.1726089 -0.74335605 0.4081999 -0.6667893 -0.06439929 0.025313243 -0.032721523
0.07559072 0.5529588 -0.29688784 -0.66531193 -0.16662703 0.18976809 -0.5821074 0.08995746
0.11817254 0.06818639 0.5807757 0.16790186 0.037430674 -0.6389735 0.2465956 0.5477022
-0.77306306 0.14792295 -0.4839116 0.8031153 0.01108104 0.51975167 -0.36797085 -0.24011117
-0.54733825 0.015135273 0.67683315 -0.71387684 0.8201011 0.010901555 0.11500634 -0.031262863
0.08609655 -0.4124426 0.4827495 0.8085443 0.112085216 -0.029748414 0.7258695 -0.045201212
-0.14966272 0.032317862 -0.48316976 -0.046107844 -0.029602095 0.5922017 0.014996557 -0.6589238
-0.9209187 -0.07269499 -0.82173544 0.86758536 0.15896164 0.8679248 -0.40835735 -0.6324765
-0.5974798 0.06129992 0.6723855 -0.8267956 0.83479446 -0.099110566 -0.1371694 0.15653712
0.14623104 -0.6504324 0.71346194 0.8348757 -0.030231295 -0.3189083 0.75431293 -0.03468974
-0.1461168 0.047493055 -0.72491324 0.0064287037 0.17235295 0.7432029 -0.2144091 -0.78344387
0.68705016 -0.015181124 0.8384347 -0.9123149 -0.12646785 -0.7643072 0.47125795 0.5195353
0.42774206 0.071407974 -0.67540216 0.69379693 -0.8655477 -0.055659883 -0.07460669 -0.057545997
-0.15994734 0.74605846 -0.5898896 -0.95236015 -0.14453991 0.4339323 -0.8120552 -0.07296473
0.13856475 0.0938621 0.62684983 -0.16785063 -0.12676653 -0.84152365 0.2642252 0.82165825
0.5736581 0.0011069477 0.49901813 -0.81806344 -0.048609182 -0.48672944 0.4440761 0.45621014
0.5569963 -0.05102934 -0.603993 0.75995904 -0.63598096 -0.068903476 0.15081717 -0.025541771
-0.07568519 0.64642143 -0.2814656 -0.55597043 0.05149724 0.18998255 -0.53882784 0.15166636
-0.17338862 -0.021900326 0.37165827 0.03294407 0.07311216 -0.69210213 0.09357458 0.82019305

spatial_encoder.pos_encoder.2.bias f4 [64]
00000000: d53b 73bc 2a5a 963d 7589 1ebe c421 0c3e
00000010: 8181 a4bd b913 45bd 0d6e ddbd 84e5 86bd
00000020: 1597 8bbd 6b13 21be 0072 773d 5267 15ba
00000030: bb14 313e 9242 f43d 1c7b 1d3e 200e 553d
00000040: 603c be3d 4381 293e c39c 143e 3b15 0bbe
00000050: ef57 22bd 159b 2ebe f547 db3b 4fbc 7fbd
00000060: f61f 1d3e 94df e43c 5589 003b 7ff3 02be
00000070: cd0a 0ebe 8fe0 e33c e8e0 b3bd ed44 a6bd
00000080: 7bf6 fd3d 9abb bcbd 7d26 a1bd e0fe 0a3e
00000090: 4e75 8d3d 49b4 cdbd 305b 5b3d 7b82 b63d
000000a0: 34c9 20be 6047 073d dd6f 253d 4779 e1bb
000000b0: a68f 2d3e 5847 efbd e543 c43d 6353 c0bd
000000c0: 23f7 1abe f2bb f63d f2ab adbd a439 083c
000000d0: b467 be3d 4d15 17be 9ff2 1abe 9f7b 763d
000000e0: f5d5 1d3e ce3e 99bc 8eee fe3d 1e52 7e3d
000000f0: 0e98 4e3d 2ade e6bd e648 2c3e ebd5 a53d
-0.014845808 0.07341416 -0.15482123 0.13684756 -0.080325134 -0.048114512 -0.10812006 -0.065867454
-0.06815926 -0.15730064 0.060411453 -0.0005699295 0.17293064 0.1192676 0.15378994 0.052015424
0.09288859 0.16553216 0.14512925 -0.13582318 -0.03963464 -0.17051347 0.0066919276 -0.062435444
0.15344223 0.027938642 0.0019613106 -0.12788199 -0.13871308 0.027817039 -0.08783132 -0.08118615
0.12400528 -0.0921547 -0.07868669 0.1357379 0.0690714 -0.10044152 0.05355376 0.08911606
-0.15701753 0.033027053 0.040389884 -0.0068809125 0.16949329 -0.116835296 0.09583262 -0.09390905
-0.15133338 0.120475665 -0.084800616 0.008314524 0.092971236 -0.1475422 -0.15131615 0.060176488
0.1541365 -0.018706705 0.124478444 0.06209003 0.05043798 -0.11272843 0.16824684 0.08097442

spatial_encoder.attention.in_proj_weight f4 [192, 64]
00000000: 4881 8d3d 1929 0d3e b8ab 05bd ced8 18bd
00000010: 46ee c4bd 206d 3fbc 6476 0fbe 46ed d33d
00000020: 173b 073e 683e 273d e743 143e e0ed 9d3d
00000030: 8ed5 cf3d 7fcb 103e ce90 d7bd 20c9 44bc
00000040: b494 6b3d bed8 27bd b568 debd 4ce5 44bd
00000050: e96c 9bbd 30ef 5bbd bad9 eebd 6e27 3dbd
00000060: 92a6 b33d bf9c 89bd 148e 853d f6eb 00be
00000070: d291 c5bd 90fc 813c 652d 113e f5c6 10be
00000080: 6479 883d e057 db3c 7418 00be cba5 e3bd
00000090: 98f7 9d3d e4a9 9cbd f2b8 db3d 5ed2 d8bd
000000a0: 2adb ec3d fdf3 9fbd 8404 7e3d 309f 3b3d
000000b0: 7d06 f6bd 236e a4bd b6e5 17bd 00ac fe39
000000c0: 78d8 9a3d f3e1 80bd 7885 b83c e213 aabd
000000d0: ba08 95bd e29a cc3d 60be 2bbd 715d 09be
000000e0: a0b8 d23b c0c8 b2bc 9444 323d cbf0 9fbd
000000f0: e011 d83b edad 9abd 227d bdbd fc57 0f3d
00000100: 98d1 413d 4004 e83c cfce 103e 5085 683c
00000110: c04b 553c 00f6 a3bc 1490 17be 0042 753d
00000120: ba6a f43d e08d 783c 5a86 f4bd 75c2 0c3e
00000130: c47a 0c3d 22c8 e23d 842c 883d 28d2 c53c
00000140: 3cc1 38bd 18bd 003d 5cc4 493d 0010 18bc
00000150: 3a44 c8bd 77c6 a4bd 5faf 0fbe c040 75bd
00000160: 182e cabc 3737 003e 03b7 a7bd 3c41 1abe
00000170: c0d9 ab3d 652a 073e a28c f4bd 8066 c8ba
00000180: 0c5d 473d 8e21 ca3d 0023 e1bc 66cd 8e3d
00000190: 9ee6 f03d 6a7a b73d 0ac3 983d 9eac be3d
000001a0: e17a 0cbe 5454 053d f6c9 f13d 486b f8bd
000001b0: e26a 09be 4a75 01be 7088 403d 8f7d 113e
000001c0: b081 63bc 8c46 79bd c070 143c 8342 01be
000001d0: 081a d93c 1622 cebd 3208 d3bd 74b6 e4bd
000001e0: ae87 31bd 0e55 cc3d c8ba fe3c 0233 da3d
000001f0: 403e 17be ec56 ffbd 801b c03d baf9 f63d
00000200: c721 053e f997 11be 8670 8c3d 7595 1abe
00000210: be73 39bd 803f 4b3b 209e 923d fa8e 3fbd
00000220: 218d 07be 4556 18be f677 7bbd f6f0 ee3d
00000230: b209 883d b415 9b3d f992 fdbd 5adc 0cbe
00000240: db0c 113e 76cc cc3d d223 87bd 90e8 523c
00000250: a2e0 e13d 091e 0d3e e247 fcbd 7265 9bbd
00000260: fcad 733d ca8d ef3d 6830 da3c 40cc 1abc
00000270: 2051 c23b a1a8 0e3e 502a f6bd 70d6 8e3d
00000280: de78 e0bd 407c 6e3c 1c17 14be e211 cb3d
00000290: ebb0 aebd f09e 263c a0a2 c4bd d0b4 653c
000002a0: edad 98bd ca58 a0bd dedf 87bd 9c89 c23d
000002b0: e843 af3c b283 21bd 4585 053e c8c5 f53c
000002c0: aaed 4abd a0d6 e2bb e22d 75bd 28c3 78bd
000002d0: 8ed1 43bd 6070 153d 2897 0bbe 062c f4bd
000002e0: 3a78 d23d 4a2f 16bd 4038 b9bb 4801 5b3d
000002f0: f13d 8cbd c6a4 db3d 96f1 0dbd b0d7 183c
00000300: 5e73 d9bd a4fd 7e3d 7dd9 debd 92ae be3d
00000310: 288e b1bc fe05 65bd 94e9 51bd dc3d 6f3d
00000320: 7b8a 193e 345d 2a3d d02d c03d bb24 04be
00000330: 68fc 13bd a78f b1bd 2008 e1bd f856 d73c
00000340: 3a09 44bd e4f2 0d3d e655 79bd 34f2 0ebe
00000350: 845b a1bd 80af 16be b0ce 073d 6761 ebbd
00000360: b603 f13d f6b2 873d 62eb afbd 5234 33bd
00000370: aa74 0cbe 1ae1 e13d 0b35 8cbd 24bb 03bd
00000380: a04b 393c 9634 983d 8ef1 3abd f0b7 993d
00000390: 3c41 a13d 58f5 9abc 6ee3 cf3d cd78 09be
000003a0: 68b9 aabd 10d7 44bc c062 7fbc 3877 5e3d
000003b0: 0e74 e23d cd65 e2bd ea86 a43d 5c75 163d
000003c0: 1532 023e 5658 a73d 944c 08bd 18d6 b1bc
000003d0: 76a5 d0bd 785c 0a3d 065b f53d 3cc7 573d
000003e0: de81 fd3d 5074 7a3d e050 f13c 9cc1 07bd
000003f0: 8e6f 07be cc19 ebbc 2513 053e fd4e 083e
0.06909424 0.13785209 -0.032634467 -0.037316136 -0.096157596 -0.011683732 -0.14010006 0.10347991
0.13206135 0.040831 0.14479028 0.07711387 0.10148154 0.14140128 -0.10525666 -0.012010843
0.05751486 -0.040978186 -0.10859815 -0.048070237 -0.07589132 -0.053694904 -0.11662622 -0.04618018
0.08772005 -0.0671935 0.0652124 -0.12590012 -0.09646954 0.015867501 0.14177473 -0.14138396
0.066637784 0.0267753 -0.12509328 -0.11115607 0.077132404 -0.076495916 0.10728635 -0.10586999
0.1156524 -0.07810209 0.062016025 0.04580611 -0.12012956 -0.080288194 -0.037084304 0.00048574805
0.075608194 -0.062930964 0.02252458 -0.083045736 -0.07277055 0.09990479 -0.041929603 -0.13414551
0.0064307004 -0.02182424 0.043522432 -0.078095995 0.0065939277 -0.07552705 -0.09252383 0.034996018
0.047319025 0.028322339 0.14141391 0.01419194 0.0130185485 -0.020014763 -0.14801055 0.059877396
0.11934419 0.015170544 -0.11939688 0.13746054 0.034296766 0.110733286 0.06649116 0.024148062
-0.045106158 0.031430334 0.04925953 -0.009281158 -0.09778638 -0.08045667 -0.14031743 -0.059876204
-0.024680182 0.12521063 -0.081892036 -0.15063947 0.08391142 0.13199766 -0.11940886 -0.0015289336
0.04867272 0.09869681 -0.02748251 0.069727704 0.11762737 0.089588955 0.07459076 0.09310268
-0.1371875 0.032551125 0.11806099 -0.12129837 -0.13419679 -0.12642398 0.047005117 0.14208053
-0.0138859 -0.060858294 0.009060085 -0.12623028 0.02650167 -0.10065095 -0.103042975 -0.11167613
-0.043342285 0.099771604 0.031094924 0.1065426 -0.1476984 -0.12467751 0.09380245 0.1205935
0.13001166 -0.14218129 0.068574 -0.15096076 -0.045276396 0.003101319 0.07159066 -0.046767212
-0.1323743 -0.14876659 -0.0613937 0.116670534 0.06642474 0.07572499 -0.123815484 -0.13755932
0.1416506 0.09999935 -0.06598629 0.01287283 0.110291734 0.13780989 -0.12318398 -0.075877085
0.059492096 0.11696966 0.02663441 -0.009448111 0.005930081 0.13931514 -0.12019789 0.069744945
-0.109605536 0.014555991 -0.1446194 0.0991552 -0.08529838 0.01016973 -0.09601331 0.01402016
-0.07455049 -0.07829435 -0.06634496 0.09498903 0.021394685 -0.039432235 0.1303912 0.030001536
-0.04954306 -0.006922558 -0.05985821 -0.06073299 -0.04780727 0.036484122 -0.1363188 -0.11922459
0.10276838 -0.036666192 -0.0056524575 0.05346802 -0.06847752 0.107247874 -0.034654222 0.009328768
-0.10617708 0.06225361 -0.10881326 0.093106404 -0.02167423 -0.055913918 -0.051248148 0.058408603
0.14994232 0.04159279 0.09383738 -0.12904637 -0.036129385 -0.08669978 -0.10987878 0.026286587
-0.04786036 0.034655467 -0.060872935 -0.1395958 -0.07878783 -0.14715385 0.033156097 -0.114931874
0.11768286 0.06625931 -0.085898176 -0.04375107 -0.13716379 0.11029263 -0.06846055 -0.032160893
0.011309534 0.07431905 -0.04564052 0.075057864 0.078737706 -0.018915817 0.10150801 -0.13424988
-0.08336145 -0.0120141655 -0.015587509 0.054312915 0.11057292 -0.11054573 0.08033545 0.036733016
0.12714417 0.081711456 -0.033276156 -0.021708533 -0.10187809 0.03377959 0.11980252 0.05268024
0.12378286 0.06114608 0.02945751 -0.033143625 -0.13226148 -0.028698824 0.12995584 0.13311382

spatial_encoder.attention.in_proj_bias f4 [192]
00000000: 0000 0000 0000 0000 0000 0000 0000 0000
00000010: 0000 0000 0000 0000 0000 0000 0000 0000
00000020: 0000 0000 0000 0000 0000 0000 0000 0000
00000030: 0000 0000 0000 0000 0000 0000 0000 0000
00000040: 0000 0000 0000 0000 0000 0000 0000 0000
00000050: 0000 0000 0000 0000 0000 0000 0000 0000
00000060: 0000 0000 0000 0000 0000 0000 0000 0000
00000070: 0000 0000 0000 0000 0000 0000 0000 0000
00000080: 0000 0000 0000 0000 0000 0000 0000 0000
00000090: 0000 0000 0000 0000 0000 0000 0000 0000
000000a0: 0000 0000 0000 0000 0000 0000 0000 0000
000000b0: 0000 0000 0000 0000 0000 0000 0000 0000
000000c0: 0000 0000 0000 0000 0000 0000 0000 0000
000000d0: 0000 0000 0000 0000 0000 0000 0000 0000
000000e0: 0000 0000 0000 0000 0000 0000 0000 0000
000000f0: 0000 0000 0000 0000 0000 0000 0000 0000
00000100: 0000 0000 0000 0000 0000 0000 0000 0000
00000110: 0000 0000 0000 0000 0000 0000 0000 0000
00000120: 0000 0000 0000 0000 0000 0000 0000 0000
00000130: 0000 0000 0000 0000 0000 0000 0000 0000
00000140: 0000 0000 0000 0000 0000 0000 0000 0000
00000150: 0000 0000 0000 0000 0000 0000 0000 0000
00000160: 0000 0000 0000 0000 0000 0000 0000 0000
00000170: 0000 0000 0000 0000 0000 0000 0000 0000
00000180: 0000 0000 0000 0000 0000 0000 0000 0000
00000190: 0000 0000 0000 0000 0000 0000 0000 0000
000001a0: 0000 0000 0000 0000 0000 0000 0000 0000
000001b0: 0000 0000 0000 0000 0000 0000 0000 0000
000001c0: 0000 0000 0000 0000 0000 0000 0000 0000
000001d0: 0000 0000 0000 0000 0000 0000 0000 0000
000001e0: 0000 0000 0000 0000 0000 0000 0000 0000
000001f0: 0000 0000 0000 0000 0000 0000 0000 0000
00000200: 0000 0000 0000 0000 0000 0000 0000 0000
00000210: 0000 0000 0000 0000 0000 0000 0000 0000
00000220: 0000 0000 0000 0000 0000 0000 0000 0000
00000230: 0000 0000 0000 0000 0000 0000 0000 0000
00000240: 0000 0000 0000 0000 0000 0000 0000 0000
00000250: 0000 0000 0000 0000 0000 0000 0000 0000
00000260: 0000 0000 0000 0000 0000 0000 0000 0000
00000270: 0000 0000 0000 0000 0000 0000 0000 0000
00000280: 0000 0000 0000 0000 0000 0000 0000 0000
00000290: 0000 0000 0000 0000 0000 0000 0000 0000
000002a0: 0000 0000 0000 0000 0000 0000 0000 0000
000002b0: 0000 0000 0000 0000 0000 0000 0000 0000
000002c0: 0000 0000 0000 0000 0000 0000 0000 0000
000002d0: 0000 0000 0000 0000 0000 0000 0000 0000
000002e0: 0000 0000 0000 0000 0000 0000 0000 0000
000002f0: 0000 0000 0000 0000 0000 0000 0000 0000
0.0 0.0 0.0 0.0 0.0 0.0 0.0 0.0
0.0 0.0 0.0 0.0 0.0 0.0 0.0 0.0
0.0 0.0 0.0 0.0 0.0 0.0 0.0 0.0
0.0 0.0 0.0 0.0 0.0 0.0 0.0 0.0
0.0 0.0 0.0 0.0 0.0 0.0 0.0 0.0
0.0 0.0 0.0 0.0 0.0 0.0 0.0 0.0
0.0 0.0 0.0 0.0 0.0 0.0 0.0 0.0
0.0 0.0 0.0 0.0 0.0 0.0 0.0 0.0
0.0 0.0 0.0 0.0 0.0 0.0 0.0 0.0
0.0 0.0 0.0 0.0 0.0 0.0 0.0 0.0
0.0 0.0 0.0 0.0 0.0 0.0 0.0 0.0
0.0 0.0 0.0 0.0 0.0 0.0 0.0 0.0
0.0 0.0 0.0 0.0 0.0 0.0 0.0 0.0
0.0 0.0 0.0 0.0 0.0 0.0 0.0 0.0
0.0 0.0 0.0 0.0 0.0 0.0 0.0 0.0
0.0 0.0 0.0 0.0 0.0 0.0 0.0 0.0
0.0 0.0 0.0 0.0 0.0 0.0 0.0 0.0
0.0 0.0 0.0 0.0 0.0 0.0 0.0 0.0
0.0 0.0 0.0 0.0 0.0 0.0 0.0 0.0
0.0 0.0 0.0 0.0 0.0 0.0 0.0 0.0
0.0 0.0 0.0 0.0 0.0 0.0 0.0 0.0
0.0 0.0 0.0 0.0 0.0 0.0 0.0 0.0
0.0 0.0 0.0 0.0 0.0 0.0 0.0 0.0
0.0 0.0 0.0 0.0 0.0 0.0 0.0 0.0

spatial_encoder.attention.out_proj.weight f4 [64, 64]
00000000: a055 9e3c e211 b53d 52f6 dbbd d0a7 dc3c
00000010: 5803 71bd 30f8 4fbc 84bf 273d 60c3 623d
00000020: 88e9 ea3c c821 c6bd 9036 a0bd 8009 0f3b
00000030: 1059 b1bc 9246 d6bd dc33 fc3d 50cd 803c
00000040: 9ee6 b5bd 588e 603d ac76 5e3d 6c2b 7bbd
00000050: a65e 803d d4ce 9ebd fc65 313d fa2c f33d
00000060: 58fe a83d ccc4 7c3d 8855 d0bc 883d c03c
00000070: a4ab 323d d81b fa3c 5074 cfbc 38e0 8e3c
00000080: 3c60 4fbd 58b5 90bd 003f ecbd 14b8 d0bd
00000090: f2b1 a0bd 38b5 f43d f8ea cc3c 3695 e7bd
000000a0: f8db 82bd 702f ef3c ac3e 19bd 48ed 10bd
000000b0: 7c43 40bd 001a fabc 6093 6b3c c08e f23b
000000c0: b279 a43d 54d3 a33d 92af d23d 604c 82bb
000000d0: 3c9e 64bd 00a2 df39 e086 a9bd 6478 513d
000000e0: 9017 77bc 48fb 23bd 320a d9bd c0bd 763d
000000f0: 96e4 8e3d b487 e93d e462 35bd 6045 1a3d
00000100: a065 9a3b 7a10 a3bd c009 a0bd 0018 833d
00000110: dc06 93bd 3c6a ba3d 3cdf 323d 34da 2e3d
00000120: 6898 a83d bc94 7a3d 10d1 5c3d d0d2 843d
00000130: 9c46 59bd 86c0 87bd 2899 bbbc 821f 8e3d
00000140: e227 b33d 7e85 bc3d ec80 21bd 10ee 81bc
00000150: 70d3 afbd 40d9 9d3d b0c2 a9bd a0ae 52bd
00000160: 5e65 d33d 60d8 f83c e056 56bd 1862 acbd
00000170: 680b b0bd 3c99 ce3d 30fc e9bd 9437 dd3d
00000180: 86ca cc3d 20cc fd3b 4028 24bc ca18 c73d
00000190: b4c7 613d 060d f23d cacc ce3d dcdf a7bd
000001a0: 8afb 9d3d c21b 813d 5ec3 b5bd 30e6 753d
000001b0: 30f8 84bd d485 98bd 80d4 183b 40a9 7bbc
000001c0: d8aa 09bd 00e3 a7bd ae0a 8c3d fa3f ff3d
000001d0: 58e6 e2bc 747c acbd 0035 d3bb 586a debd
000001e0: e4e2 cfbd 008f 2abd 96d8 a03d 0e20 c4bd
000001f0: d069 a3bc e4ee 84bd d8b8 ebbd 7083 e6bc
00000200: a098 eebb 202d acbc b02b bb3d 8016 4d3d
00000210: 6062 9f3d 7c8b 483d 00df 563c 44f2 8a3d
00000220: aa50 a3bd ca70 823d 64df 733d d84b 59bd
00000230: c093 8cbb 72a8 c1bd 2603 e0bd 00cc 10b9
00000240: 485a b73c f8e1 dcbc b42e 1e3d f0a1 c5bd
00000250: fcb7 8cbd a8b0 b03d ce21 f9bd 38ca a03c
00000260: 5e16 c53d 82eb bf3d 14a7 2e3d ca30 e9bd
00000270: a0d3 833c 900c 34bd 9ced 0fbd 3025 c43d
00000280: d4ff 2dbd f856 b7bd 3e80 cdbd 5ea2 a13d
00000290: 80a4 c53b 9cd7 fc3d 5869 d13c 3a92 eebd
000002a0: 7058 fd3c 5440 ea3d 5ec7 9e3d 58a5 193d
000002b0: 7655 c0bd a681 99bd e2d3 ad3d 2a2d abbd
000002c0: d09b e93c b032 83bc b08f 2b3d 4001 063c
000002d0: d4fc c2bd 5816 4cbd ec47 df3d f014 713c
000002e0: 5cce 813d 1827 81bd f6a8 ca3d 9033 dbbc
000002f0: a093 2cbd 18b9 cf3c d874 37bd 38bf 4dbd
00000300: 9087 92bc a0d7 e9bb d899 91bd 3002 2f3d
00000310: 561c f8bd 2426 9d3d 426e ed3d 68aa a53c
00000320: 2044 efbc 7a78 eabd bc6f 703d e8c2 d13d
00000330: 66dc da3d d09e 363c 6838 2a3d 384d f53d
00000340: 70d7 983c 942d 77bd bc0d f3bd 1cda 5f3d
00000350: 3c72 473d d280 e33d ba54 82bd 74ea 5b3d
00000360: bc65 29bd f87f febc 605f 953d 68ab eabd
00000370: 06b5 bc3d 6421 6e3d 5025 98bd baa2 823d
00000380: d8c8 00bd 6050 383c 880a 09bd 2aa7 fabd
00000390: 701b 54bc 98d0 793d 4047 6ebc 881d 7cbd
000003a0: c0c8 813b f0dd ba3c 24db 0ebd 2086 c6bd
000003b0: ae40 89bd 20f2 a6bc a464 383d 6ea7 e33d
000003c0: c008 183b 4c51 373d 864b 933d 2c42 5fbd
000003d0: e8e3 29bd 6ace a93d 004b b73d 58a5 f23c
000003e0: 12d5 c5bd 584d 913d 2e95 d3bd b8e8 7f3d
000003f0: a0b7 723c 3062 253d 1489 f9bd ac01 34bd
0.019327939 0.088413015 -0.10740341 0.026935488 -0.05884108 -0.01269345 0.040954128 0.055362105
0.02867581 -0.09674412 -0.07822907 0.002182573 -0.021648914 -0.10462679 0.12314579 0.0157229
-0.08881877 0.05482325 0.054312393 -0.061320707 0.06268053 -0.07754293 0.04331015 0.11873813
0.08251637 0.061711118 -0.02543141 0.02346684 0.04362072 0.030530855 -0.025324017 0.0174409
-0.050628886 -0.070658386 -0.11535454 -0.1019136 -0.078464404 0.11948627 0.025014386 -0.113077566
-0.06389612 0.029197425 -0.037413284 -0.03538254 -0.046939358 -0.030529976 0.014378399 0.007402271
0.08031024 0.07999292 0.10287394 -0.0039763898 -0.055814967 0.00042654574 -0.082776785 0.051140204
-0.015081301 -0.040034562 -0.10597648 0.060239553 0.06977193 0.114028364 -0.044283763 0.037663817
0.0047118217 -0.07962127 -0.0781436 0.06401062 -0.07179043 0.09102294 0.043669924 0.042688563
0.08232194 0.061177 0.053910315 0.06485522 -0.053045854 -0.06628518 -0.022900179 0.069396034
0.087478414 0.09205149 -0.03942959 -0.015860587 -0.085852504 0.07707453 -0.08289087 -0.051436067
0.10322069 0.030376613 -0.052328944 -0.084171474 -0.085959256 0.10087821 -0.11425054 0.10801616
0.09999566 0.007745281 -0.010019362 0.09721525 0.055122092 0.1181889 0.10097654 -0.08196995
0.07713993 0.063041225 -0.08875154 0.060033977 -0.064926505 -0.07447401 0.002332002 -0.015360177
-0.033610195 -0.08197594 0.068379745 0.124633744 -0.027697727 -0.08422175 -0.006445527 -0.10860127
-0.10150698 -0.04164028 0.078538105 -0.095764264 -0.019947916 -0.06490877 -0.115098655 -0.028138846
-0.007281378 -0.021017611 0.09139192 0.050070286 0.077824354 0.048961148 0.013114691 0.0678449
-0.0797437 0.06369169 0.059539214 -0.053050846 -0.004290074 -0.094559565 -0.109381005 -0.00013808906
0.022381917 -0.026963219 0.03861876 -0.09650028 -0.0687103 0.086274445 -0.12164651 0.019627675
0.09623407 0.093710914 0.042639807 -0.11386259 0.016092122 -0.043957293 -0.03513871 0.095774055
-0.042480305 -0.08952135 -0.10034226 0.07892297 0.006031573 0.12345812 0.025562927 -0.11648984
0.03092596 0.11438051 0.0775287 0.0375112 -0.093913004 -0.074954316 0.08487679 -0.08358224
0.02851668 -0.01601538 0.041885078 0.008179009 -0.095208794 -0.049825996 0.1090239 0.014714465
0.06338188 -0.06306285 0.09895508 -0.026757985 -0.042132974 0.025356814 -0.044789165 -0.05023119
-0.017886907 -0.0071363 -0.071094215 0.042726696 -0.1211478 0.0767329 0.11593296 0.020222858
-0.02920729 -0.1144876 0.05870031 0.102422535 0.10686569 0.011146262 0.0415577 0.11977619
0.018657416 -0.0603462 -0.11867854 0.054651365 0.048692927 0.11108555 -0.063638166 0.05369039
-0.041356787 -0.03106688 0.07293582 -0.114584744 0.09214215 0.058137313 -0.07428992 0.06378694
-0.03144154 0.011249632 -0.03345731 -0.12238915 -0.012945995 0.060989946 -0.0145433545 -0.0615516
0.003960699 0.022810906 -0.034876958 -0.09693551 -0.0670179 -0.020379126 0.045017853 0.11115919
0.0023198575 0.044755265 0.07192139 -0.054506466 -0.041477114 0.082913235 0.08949852 0.029619858
-0.096597806 0.0709483 -0.10331188 0.062477797 0.014814287 0.040376842 -0.12184349 -0.043946907

spatial_encoder.attention.out_proj.bias f4 [64]
00000000: 0000 0000 0000 0000 0000 0000 0000 0000
00000010: 0000 0000 0000 0000 0000 0000 0000 0000
00000020: 0000 0000 0000 0000 0000 0000 0000 0000
00000030: 0000 0000 0000 0000 0000 0000 0000 0000
00000040: 0000 0000 0000 0000 0000 0000 0000 0000
00000050: 0000 0000 0000 0000 0000 0000 0000 0000
00000060: 0000 0000 0000 0000 0000 0000 0000 0000
00000070: 0000 0000 0000 0000 0000 0000 0000 0000
00000080: 0000 0000 0000 0000 0000 0000 0000 0000
00000090: 0000 0000 0000 0000 0000 0000 0000 0000
000000a0: 0000 0000 0000 0000 0000 0000 0000 0000
000000b0: 0000 0000 0000 0000 0000 0000 0000 0000
000000c0: 0000 0000 0000 0000 0000 0000 0000 0000
000000d0: 0000 0000 0000 0000 0000 0000 0000 0000
000000e0: 0000 0000 0000 0000 0000 0000 0000 0000
000000f0: 0000 0000 0000 0000 0000 0000 0000 0000
0.0 0.0 0.0 0.0 0.0 0.0 0.0 0.0
0.0 0.0 0.0 0.0 0.0 0.0 0.0 0.0
0.0 0.0 0.0 0.0 0.0 0.0 0.0 0.0
0.0 0.0 0.0 0.0 0.0 0.0 0.0 0.0
0.0 0.0 0.0 0.0 0.0 0.0 0.0 0.0
0.0 0.0 0.0 0.0 0.0 0.0 0.0 0.0
0.0 0.0 0.0 0.0 0.0 0.0 0.0 0.0
0.0 0.0 0.0 0.0 0.0 0.0 0.0 0.0

spatial_encoder.query_proj.weight f4 [64, 64]
00000000: 621e f0ba 7989 063d 1a9c 4fbd 0ae4 ba3c
00000010: 65eb 8fbd 26f2 363e 6fd7 67bd 5f36 ab3c
00000020: d958 093e dd34 0d3b 1b24 043e 1d73 913d
00000030: b730 b43d 7d03 4a3e 89e6 3bbc 7c3b d63d
00000040: 673b fc3c 67bf 883e c8b7 03be f95e 373e
00000050: 010e 3bbd 9db8 b4bd eb28 58bd 24a3 54be
00000060: 2323 86bd 6fca 883d 673c babc 3d93 be3c
00000070: 9ce1 f6bc 7f14 213d c925 26bd 88d0 7b3d
00000080: 1428 bdbd 4ac1 21be 647e 3ebd b5be 543d
00000090: e12b 9fbd f10e 773d fca2 e2bd 2eb4 fbbd
000000a0: fa7b 063e 94ad d23d 3b43 45bd 1895 433e
000000b0: 0e8e 96bd 0749 e93d ea18 563d fb53 7f3c
000000c0: 9292 01be d35c 0ebe 8ab6 e83d 9e43 b53d
000000d0: a443 233e f126 b43d 4fa3 f3bc 9c9a 05be
000000e0: 83f6 043e 5e32 86bc 6659 8b3d 6d27 48bc
000000f0: 4c11 283e aa69 3fbb 036b 19be bc40 a2bd
00000100: 313f 0ebe a630 8a3d 4c71 51bd c44b 57bd
00000110: d4e1 12be b27d 84bd b040 853d 3b22 18bd
00000120: 55ef be3d e262 23bd 5e77 15bc 440b 94bd
00000130: ea27 10be 161e 9f3d 2fc8 00bc 2e03 b03d
00000140: 8aa6 13be 1505 633d 9d3e 6c3d 27cf 1cbc
00000150: a793 783d 9774 1ebe e6d7 b5bd 4e71 4f3d
00000160: eab4 b73d 8bdd af3d 299f bc3d 1537 85bd
00000170: ac0d 24bc 5b33 cf3d d88d 0b3c 26a6 1a3c
00000180: fdf9 10be 82ba 123d 16c0 c8bd b7de f03b
00000190: 28ab ccbd 3c0f b93d 07f4 e8bd b8d6 8e3d
000001a0: 874b 0d3e 607f a9bd d728 b1bd ab1b 9e3d
000001b0: c8b1 d4bd b735 05be 43ef a43d 36d0 6ebd
000001c0: ad52 96bc a01f 4dbd bc57 13bd d0f3 01bd
000001d0: af28 c63d 787f b4bd 07e0 8d3c f508 113c
000001e0: c391 b1bc cb02 2b3e ee12 c6bd b362 6abd
000001f0: d278 40bd fd3e 4a3c c48f 31be 89c4 7d3d
00000200: d17e 0c3d a6a0 173e be1f 113e 5b50 b93d
00000210: 05dd 3bbe 9201 be3d 04c0 763c 467c 023d
00000220: 5760 8cbd 81c9 bd3d 9cd6 b43d 8b19 ee3c
00000230: ff12 64bd ad6e 4cbd 4a87 353e b012 51bd
00000240: acf3 08be eee3 543e eff0 aabd 07cc 033e
00000250: 8cb6 cd3d d939 6dbd c47e 3ebd 948c 27bd
00000260: 903c 03bd 2590 e93d aee1 513c d9d4 e1bd
00000270: d009 a4bc b685 2dbe 1c01 033d c7cf 4cbd
00000280: 0f80 9bbb 93ed c1bd b71f 1dbe 00bd 1cbc
00000290: 5bfd 16bd ff51 dc3d cb3c e0bc b365 ffbc
000002a0: deb4 94bb 8fa8 403b b7dc 45bc 6758 0a3e
000002b0: 71b3 3cbe ec7c 7b3d 0308 b43d 668f 1bbe
000002c0: 085a f9bc 4c9a 7bbd 23db 923d a2c6 16bd
000002d0: 223a 0c3e eb7b 56bd 0fc3 27bd 2888 183d
000002e0: 8d15 3c3d a4f9 cf3d aff2 943a 7146 37bd
000002f0: 3b93 39bd 319c b9bd 1d7c 39be fbec 903d
00000300: 6e45 363d 1d6d 943d 106e 30bd 553d 053d
00000310: aa3d 3d3c 3c2f 983d c18a 74bc a82c 0c3d
00000320: 0ff7 163c f154 53bc d138 ce3d 9e6d efbd
00000330: b24e e7bd 3db3 0d3e f0e8 01bd b410 893c
00000340: bcac ce3c 92c0 9c3d b7d2 c2bb 8712 18bd
00000350: 0b62 083e 494e 0ebe 25cb e43d daf7 13be
00000360: 1334 e9bc ac1c 76bc 9be6 2c3e 9e0d 0f3d
00000370: 1450 a93d a2d9 173c c1a3 e63c 033c 79bc
00000380: c273 243d 72ac b6bd bce3 57bd f6c2 313e
00000390: f2ad a83b 145e 0abd f1bf 6f3d 414e 55bd
000003a0: 8c1a 723b e6c7 213e 6036 a43d 1f9e debc
000003b0: cee0 92bd 2caa 22bd 6c6a 2e3d 4f9b 87ba
000003c0: edc7 b5bd 8999 cebd 3f80 8ebd f4c3 b0bd
000003d0: 2e51 c4bc aaa4 7d3d c22f 9d3d 638e 103d
000003e0: 7fef 3a3e 685a 50bc 45b6 0c3e ac4b e93c
000003f0: fb92 84bc a0f7 8cbd d1e1 01be c2ac 793b
-0.0018319602 0.032845948 -0.05068598 0.022813816 -0.0702732 0.1786581 -0.056601938 0.02089995
0.13412799 0.0021546402 0.12904398 0.07102034 0.08798354 0.19727893 -0.011468538 0.104605645
0.030790044 0.26708528 -0.12863076 0.17907323 -0.045667652 -0.08824275 -0.052773397 -0.20765358
-0.065496705 0.06679236 -0.02273388 0.023263568 -0.030136876 0.039326187 -0.04056338 0.061478168
-0.0923616 -0.1579639 -0.046507254 0.051939685 -0.07772041 0.060316984 -0.11066243 -0.12290226
0.13133231 0.10287014 -0.04815982 0.19099844 -0.073513135 0.11390882 0.052269854 0.015583987
-0.12653568 -0.13902597 0.113629416 0.088507876 0.15943772 0.0879649 -0.029740958 -0.1304726
0.12984662 -0.016381439 0.06804161 -0.012216431 0.16412848 -0.0029207268 -0.14982228 -0.07922503
-0.13891293 0.0674756 -0.05113344 -0.05256249 -0.14343959 -0.06469287 0.06506479 -0.03714202
0.09322993 -0.039889224 -0.009122698 -0.07228711 -0.14077726 0.0776941 -0.0078602275 0.085943565
-0.14418998 0.05542477 0.0576769 -0.009570873 0.060687687 -0.15474163 -0.0887907 0.050645165
0.089700535 0.08587178 0.09210045 -0.06504647 -0.010013025 0.10117217 0.008517705 0.009439027
-0.14157863 0.0358224 -0.098022625 0.0073507684 -0.09993583 0.09036109 -0.113746695 0.06974548
0.13798343 -0.08276248 -0.08650368 0.07720121 -0.103854716 -0.13008772 0.08053448 -0.058304034
-0.01834997 -0.050078988 -0.035972342 -0.03172666 0.096757285 -0.08813375 0.017318739 0.008852233
-0.02167595 0.16700284 -0.09671579 -0.057223033 -0.046990223 0.012344119 -0.17339998 0.06195501
0.03430063 0.14807376 0.14172265 0.0904853 -0.18346031 0.09277643 0.0150604285 0.031856798
-0.06854313 0.092669494 0.08829996 0.029064914 -0.05568218 -0.049910236 0.1772739 -0.051043212
-0.13374203 0.20790073 -0.08346736 0.12870799 0.10044584 -0.057916496 -0.046507612 -0.04090555
-0.03204018 0.114044465 0.012810154 -0.110269256 -0.02002421 -0.16945538 0.03198348 -0.05000284
-0.0047454904 -0.09469142 -0.1534413 -0.0095665455 -0.036862712 0.10757827 -0.027372738 -0.031176424
-0.0045381626 0.0029397344 -0.012076548 0.13510285 -0.18427826 0.06139843 0.087905906 -0.15191421
-0.030438438 -0.061426446 0.07170703 -0.036810525 0.13694051 -0.05236427 -0.040957507 0.037239224
0.04591899 0.10155037 0.0011363829 -0.044744913 -0.045306426 -0.09062994 -0.18113752 0.070764504
0.044499807 0.07247374 -0.043073714 0.032529194 0.011550346 0.07430884 -0.01492566 0.034222275
0.009214177 -0.01289867 0.100694306 -0.1169083 -0.11294307 0.13837905 -0.031716287 0.016731597
0.02522885 0.07653917 -0.0059455293 -0.037127044 0.1331865 -0.13897051 0.11171559 -0.14450017
-0.028467214 -0.015021484 0.16884844 0.034925096 0.08267227 0.009268196 0.028154256 -0.015212062
0.040149458 -0.0891961 -0.05270742 0.17359528 0.005147689 -0.033781126 0.05853266 -0.052076582
0.0036942093 0.15798911 0.08018184 -0.027175007 -0.07171784 -0.03971307 0.04258196 -0.0010345968
-0.088760234 -0.10087878 -0.06958055 -0.08631125 -0.02396449 0.061924614 0.07675125 0.03529204
0.18255423 -0.012716867 0.13741405 0.028478466 -0.016183367 -0.06883168 -0.12683798 0.0038097356

spatial_encoder.query_proj.bias f4 [64]
00000000: 7604 ea3c 7b2e 29be 74bb d0bd d574 37be
00000010: 2be8 0a3e 91f4 c43c 1618 dbbd 45c0 09be
00000020: 6788 2c3e 34c6 383e 9cb9 993d 566c 21be
00000030: fa09 f2bd bd0f ae3d b6d7 9e3d 2098 0abe
00000040: d689 fc3d 167c a2bd ea21 af3d 224f 923d
00000050: 6a9b eabd 320f c5bd 56a2 4dbd 52ad b33d
00000060: decf c2bd 9ba5 18bc 0c08 26bd 7642 dfb9
00000070: bd66 82bd 6c10 f1bd 0a9f c8bd 896a fdbb
00000080: b87e 853d fd22 ab3d 4558 a63d 4b3f acbc
00000090: e2e7 753c 87da f73d 0bb1 89bd d990 603d
000000a0: be29 373d d041 30bd bbfd a6bd 533f 4b3c
000000b0: cc41 d83d 5579 7e3d 1e03 bf3d 7f12 3abe
000000c0: 4b4f d23c e760 90bd 9d6a 413d 1262 8abd
000000d0: 306c 16be 85fc c8bc 4bc1 19be 52bc 153e
000000e0: a880 333e 0fd5 5e3d f61c 62be e0c5 04be
000000f0: 7d34 c73c 5bac e5bd ef1b 343e ee9c 31bd
0.02856658 -0.16521637 -0.10192004 -0.17915662 0.13565128 0.0240424 -0.106979534 -0.13452251
0.16848908 0.18044358 0.07506105 -0.15763983 -0.11818309 0.084990956 0.07755987 -0.13534594
0.123309776 -0.07933824 0.085513905 0.07144 -0.11455424 -0.09622039 -0.050203644 0.087732926
-0.09512304 -0.009316827 -0.040535018 -0.00042583392 -0.06367252 -0.1177071 -0.09795959 -0.0077336472
0.0651831 0.08356283 0.08122305 -0.021026274 0.015008898 0.12102228 -0.067232214 0.054825637
0.044717543 -0.043031514 -0.08153864 0.012405234 0.10559425 0.06212743 0.093267664 -0.18171118
0.025672575 -0.07049733 0.047220815 -0.06756987 -0.14689708 -0.024534473 -0.15015142 0.1462262
0.17529547 0.054402407 -0.2208136 -0.12966108 0.02431702 -0.11214515 0.17588781 -0.04336255

spatial_encoder.key_proj.weight f4 [64, 64]
00000000: ec66 ad3d 3919 c33c faba 993d e83f 08be
00000010: c699 1d3e 7876 dcbd f46f 3b3c 69d4 0abe
00000020: c7c0 66bd 38be 5a3d 6aed 91bc 254a 573d
00000030: e28a 27be 7f6c 17be da14 d2bd 690a ccbd
00000040: f509 a83d d453 40be 5a0c b03d d91c bebd
00000050: be30 ba3b 2e3a fb3d ecc9 e03c f484 743c
00000060: 68aa afbd 32d3 123e 8cf6 a0bd 59ef 613d
00000070: 6b35 9d3d 7b51 a63d 1054 2abe 4ec0 48bd
00000080: 2068 abbd e0b8 203c eb19 c3bd f1d9 c83c
00000090: 6703 8fbd 2048 26bd 5939 3a3d e3d4 703d
000000a0: eddd 553d e900 25be 6dac 91bc 871d 0dbe
000000b0: 2444 c93c 4457 31bd 4f6b be3d a86b 293d
000000c0: 2f5a f9bc 1911 e1bd 3610 68bd 3caa dfbd
000000d0: b5f5 1bbe 1033 36bd 32af 66bd 615a 8fbd
000000e0: 3b95 89bd dff3 19be 0910 223d 6c4d b23d
000000f0: e42e 203d a92f 0a3e 774b dcbd 2a46 b8bd
00000100: 1210 fd3d 9974 10be 887d a73d 3691 30be
00000110: 15ce cc3d a3a7 84bd 3044 823d 105c 48bc
00000120: 7299 b0bc 61a4 8bbb a328 cdbd c216 fe3c
00000130: 33f3 4b3d 0388 a53d ebb1 d6bd c93e 513c
00000140: 2a14 ae3d 8483 e0bb 950d 413c 702d 3ebc
00000150: 6864 1abe 5282 52bc 4b18 02be 5479 0a3e
00000160: 185f 00be 926e e83d a654 5e3d 4c54 d93d
00000170: 864a 683d 0d16 3b3d 159f afbd cd39 933d
00000180: 9f8d c7bc 757e 473d f985 4d3d 25cc 0d3e
00000190: d532 503c a13c 99bd 661e 68bc f5a0 88bd
000001a0: e00c 043e bf28 d9bd 0c29 bd3d b0d7 193d
000001b0: 3a92 02be f2af 94bd 10be be3c d4c9 c1bd
000001c0: 8fbc c1bc da3e 85bd 94a6 013e 9e03 92bd
000001d0: 8f2e d3ba 7062 b0bd 38ef 64bc 5625 d43d
000001e0: b8e4 02be d7bd 7cbd c68e d3bd cdc3 09bb
000001f0: d721 12bd 7394 aa3d 5ddc 70bd 0900 01bd
00000200: 04b0 3f3e 1576 96bb 51c6 033e cc9f d1bd
00000210: aa3d 2e3d b22b f5bd 5160 3cbd beca f8bd
00000220: d32b cdbc 2ff7 93bd 9b0c 28be 987a 093c
00000230: 7c22 8b3d 417c cbbd 1db5 25be 4965 c03c
00000240: a091 943c 8c30 b8bd c0bd 06be 642a 16be
00000250: 7f9f 26bd 2580 e63d 6be8 0abe affb 28bc
00000260: b8aa 3ebd 6239 393e f47d 9fbc 0f4e 68bd
00000270: b49a d73d 3a29 2abd 4edc 08be a2f1 13be
00000280: d1ac a93a ff07 763c d03b df3d c90d 913c
00000290: 45a1 01be 5554 5c3d 5f2f 023d 45b6 ad3d
000002a0: 34e6 ba3d 2cd4 05be c9f2 f83a 5941 aa3d
000002b0: 0dfb 063d 085e 0bbe bb08 303e 9717 d43c
000002c0: b175 fd3c 5ceb 4b3d b04a 8d3d 783e 893d
000002d0: 049a e0bc 7e4d 2dbe 1fce 913a 26f4 7b3d
000002e0: 8b04 17be d40b 1bbe c1d5 05be 7f86 00bd
000002f0: ab05 3b3b cbf5 203e e7e5 0bbe 9fcc fbbd
00000300: cf7a 4d3c 1eea 70bd 3f2a aabc c4de 7cbd
00000310: deca 2f3e 0131 11be 6e57 083d b677 cdbd
00000320: ced1 e2bd 7174 133c a4dc 513d b8cb 0d3e
00000330: f146 6ebd 13c5 fcbc 2601 04be 06d3 73bd
00000340: e8cb 443d b430 1d3d d319 21bd 2851 703d
00000350: 3ad2 53bd 8d96 cfbc ce80 74bb 8440 0f3e
00000360: 272b 32bc b77b 5b3c f3b8 66bd f544 213e
00000370: 4638 d63d a5d1 1a3e bd13 f2bd 1989 0cbe
00000380: 566a eabd 87a8 d33c 9c02 153e 6b3f 80bd
00000390: 7692 06be 2e44 8bbd 280e 5d3c d290 cd3d
000003a0: ffde c43c d4cd 213c a873 33bd e7f4 86bd
000003b0: e08c e3bd 37dd a63d 4a3f 793c 5a95 bdbd
000003c0: cee2 20bd dacc 8e3d 5226 18bd 3513 2ebd
000003d0: af9b f9bb 5c50 09bd 9abd 913d 5524 cbbd
000003e0: 6165 8dbc 903e 9abd 0a40 a73d 0d6a d7bd
000003f0: 5aba 98bd fbdf a7bc dd5b 8d3a 5fc0 92bd
0.084668964 0.023815738 0.07506366 -0.13305628 0.15390691 -0.107647836 0.011440266 -0.1355759
-0.05633619 0.053404063 -0.017813403 0.052560944 -0.16361573 -0.14787482 -0.10257883 -0.09962923
0.08205024 -0.18781978 0.08596106 -0.09282846 0.00568208 0.12266956 0.027440034 0.014924277
-0.08577424 0.14338377 -0.07859525 0.0551599 0.07676204 0.0812101 -0.1663363 -0.04901152
-0.0836947 0.009809703 -0.09526428 0.024517985 -0.06983071 -0.040596128 0.045464847 0.058796775
0.052213598 -0.16113628 -0.017782414 -0.13780795 0.024568625 -0.043296114 0.09297811 0.041362435
-0.03043851 -0.10989589 -0.056656085 -0.109211415 -0.15230449 -0.04448229 -0.056319423 -0.0699966
-0.067179166 -0.15034436 0.039566074 0.08706173 0.03910722 0.13494743 -0.10756581 -0.08997758
0.12356581 -0.14106978 0.0817824 -0.17242894 0.100002445 -0.06477287 0.06360662 -0.012228981
-0.021557543 -0.004261539 -0.100175165 0.031016711 0.04979248 0.08082583 -0.10483154 0.012771317
0.0849994 -0.0068516154 0.011783023 -0.011607513 -0.15077364 -0.012848454 -0.1270458 0.13522846
-0.12536275 0.113492146 0.054279946 0.106117815 0.056711696 0.045675326 -0.08575264 0.07188759
-0.024359522 0.048704583 0.050176594 0.13847406 0.012707432 -0.07482267 -0.014167404 -0.06671325
0.12895536 -0.10603475 0.09236345 0.03755921 -0.12751094 -0.072601214 0.023283988 -0.09462324
-0.023649482 -0.065061286 0.12661201 -0.07129596 -0.0016111898 -0.086125255 -0.01397305 0.10358684
-0.12782562 -0.061704483 -0.10329966 -0.0021021247 -0.035676803 0.08329096 -0.058803905 -0.031494174
0.18719488 -0.004591713 0.1286862 -0.10235557 0.042539276 -0.11971225 -0.045990292 -0.12148045
-0.025045311 -0.07224881 -0.16411059 0.008391045 0.06793687 -0.09935809 -0.1618237 0.023485797
0.018135846 -0.089936346 -0.13158321 -0.14664608 -0.04067945 0.112549104 -0.13565223 -0.010313912
-0.04654953 0.18088296 -0.019469239 -0.056715067 0.10527554 -0.041543223 -0.1336529 -0.14447644
0.001294518 0.015016555 0.1090008 0.017706769 -0.12659176 0.053791363 0.031783458 0.08482031
0.09125939 -0.13069218 0.0018993254 0.08313245 0.032954264 -0.13610089 0.1719083 0.025890155
0.030939909 0.049785003 0.06899011 0.06701368 -0.02741719 -0.16924092 0.0011124051 0.061512135
-0.14747827 -0.15141231 -0.13069822 -0.031378265 0.0028537314 0.15718763 -0.1366192 -0.12294888
0.012541487 -0.05881702 -0.020772098 -0.061735883 0.17167231 -0.1417885 0.033286504 -0.10032599
-0.11075173 0.00899993 0.05123581 0.13847244 -0.058173124 -0.030855691 -0.12891063 -0.05952742
0.048046023 0.038376525 -0.03933127 0.058671147 -0.05171416 -0.025340343 -0.003730822 0.13989455
-0.010874546 0.013396195 -0.056328725 0.15748961 0.10459952 0.15119036 -0.11820171 -0.13724174
-0.11446063 0.025837196 0.14551777 -0.06262096 -0.13141808 -0.068001136 0.013492145 0.10037388
0.024032114 0.009875733 -0.04381147 -0.0658968 -0.11110854 0.08147662 0.015212843 -0.09257002
-0.039278798 0.06972666 -0.03714592 -0.042498786 -0.007617436 -0.033523902 0.07116242 -0.09919039
-0.017260255 -0.07531464 0.08166511 -0.105182745 -0.07457419 -0.020492544 0.0010784824 -0.07165598
