experiments/exp_20250826_200108/best_model.pth (torch, 716550 bytes, 97 tensors)

spatial_encoder.feat_proj.weight f4 [64, 8]
000000 55 5e 97 3e 25 12 af 3e 12 8a a1 bd ee 79 97 3e
       0.29564157 0.3419353 -0.07887663 0.29585212
000010 74 48 a6 bd fb bd 2d 3d 99 fc 43 be ae ba 30 3e
       -0.08119288 0.042417508 -0.19139327 0.17258713
000020 d7 f2 bb 3e 02 1a bb be bd 7e 8d 3e 52 5a a0 3d
       0.3670871 -0.3654328 0.27635756 0.07829727
000030 f6 14 a2 3e 82 cb 75 3d 2d 32 3d 3e d6 dc 39 bd
       0.31656617 0.060008533 0.18476172 -0.04537662
000040 1c ee a8 3e 8b d4 8a 3d db de f9 bd 83 70 04 3d
       0.32994163 0.067788206 -0.122007094 0.032333862
000050 41 bc 52 be ed 42 cb bd e5 70 16 be a4 71 63 3e
       -0.20579626 -0.099248745 -0.14691503 0.22211319
000060 38 97 9d be 25 b2 1e be aa 83 45 bd 96 4c 67 be
       -0.30779433 -0.15497644 -0.048221268 -0.22587809
000070 d0 5b 5e 3d ac 98 b9 be a1 4d bb 3e 64 e0 83 be
       0.054286778 -0.36249292 0.36582664 -0.25757134
000080 ae 37 8b 3e f7 c5 32 3d e7 da a6 bd a7 4b 4e 3e
       0.27190918 0.043645825 -0.08147221 0.20146047
000090 d2 be 04 3d 59 8b 89 3e 66 22 13 3c c4 68 00 be
       0.032408543 0.26864126 0.008980369 -0.12539965
0000a0 7f b6 a0 3d 8d de 22 be 50 3b eb 3d f4 fb 9b 3e
       0.07847308 -0.15905209 0.11485922 0.30465662
0000b0 3d 9b 32 3e 8a 8a 29 be d7 2d 54 3e 14 06 6f 3d
       0.17442031 -0.16556755 0.20720612 0.058355406
0000c0 f6 d4 20 3e 1a 5d 84 be 68 91 a8 be 6b 3a f8 bd
       0.15706238 -0.2585228 -0.32923436 -0.12120517
0000d0 cb 5a 86 be 1c 6a 9c 3e d3 75 e2 3d a2 5d 22 3e
       -0.26241145 0.30549705 0.110576294 0.1585603
0000e0 68 77 1a 3e 4d dc 66 3d e6 de 87 3e 09 68 84 be
       0.15084612 0.05636244 0.26537246 -0.25860623
0000f0 25 50 ed 3c 2c af 7e be 77 95 df 3d e1 70 07 be
       0.02896888 -0.2487151 0.1091718 -0.13226654
000100 d9 02 cb 3d da 68 4f bd 59 e3 84 3e 28 39 5b be
       0.099126525 -0.050637104 0.25954702 -0.21408522
000110 c9 74 40 be 0e 93 5c be c0 42 c1 3e 54 5f 0d 3e
       -0.1879455 -0.21540472 0.3774624 0.13805896
000120 d2 19 a4 3e 96 8d b7 be d8 da a6 be d1 20 91 be
       0.3205095 -0.3585021 -0.3258884 -0.2834535
000130 1f 97 7a be 4b a1 0b 3e 0b 5b 11 3e b3 d1 9e 3e
       -0.2447171 0.13635747 0.14194886 0.31019363
000140 05 4e 57 be 75 81 5f be e9 8a 16 3e 5e 15 0a be
       -0.21025856 -0.21826728 0.14701428 -0.13484713
000150 60 15 76 3e af 50 9b bd a7 2e 65 3e 82 83 8e be
       0.24031591 -0.075837485 0.22381078 -0.27834707
000160 07 f4 50 be a6 62 d0 3c 83 af 87 3d c1 c2 9f bd
       -0.20405589 0.025437664 0.06625273 -0.07800818
000170 de 28 35 3e 31 45 81 3e 93 57 7d be 59 28 2b be
       0.17691371 0.252481 -0.24740438 -0.1671461
000180 b0 9a 9c 3e 84 5d 5d be 4a 15 f7 bd cc 0e af be
       0.30586767 -0.21617705 -0.120646074 -0.34190977
000190 e5 13 30 be de 42 b5 3d 59 17 1f bd b2 c3 65 be
       -0.17195089 0.088506445 -0.038840625 -0.22437933
0001a0 85 f0 8f 3d fc 07 22 be ac 5d 75 be c9 05 40 be
       0.07028297 -0.15823358 -0.23961514 -0.18752207
0001b0 95 45 7f be 6c 2f 5f be 3d 32 c4 3e ac 0e 13 3d
       -0.24928887 -0.21795434 0.3831958 0.035902664
0001c0 6b d1 d3 3d 9d a0 de be f2 a7 48 be 70 b0 f1 bd
       0.10342678 -0.43481913 -0.19595316 -0.11801231
0001d0 2b ac bd 3d d6 73 9f be 07 f7 f7 bd d8 76 45 be
       0.09261354 -0.31143063 -0.121076636 -0.19283617
0001e0 92 3a e7 3b f9 90 49 be 52 4c ce bc 60 ff 73 be
       0.0070565427 -0.19684209 -0.025182877 -0.23827887
0001f0 16 ac 6f be 27 e2 51 be db bd e7 bd 2e 94 8a be
       -0.2340549 -0.20496427 -0.11315509 -0.27066177
000200 98 15 9e 3e 87 2b a9 bd d3 ba 8a 3e 7a 2a ea 3d
       0.3087585 -0.08260255 0.2709566 0.11433883
000210 45 ce 9d be 99 d2 7e 3e b9 94 de bd 28 aa 12 be
       -0.30821434 0.24885024 -0.1086821 -0.14322722
000220 27 f8 a4 be 0d 7b dd be 9e 58 bb 3d 7e 2c 8f bd
       -0.32220575 -0.43257943 0.09147762 -0.06990908
000230 9d 51 20 3e bb ce 90 be 38 6a 8a 3e e7 e6 7c be
       0.15656133 -0.28282723 0.27034163 -0.24697457
000240 66 5c 8c bd 86 1d a5 3d a4 4e 2a 3e 72 8a 8f 3e
       -0.06853561 0.08062272 0.16631562 0.28035313
000250 fc 6c 9b 3e d9 21 92 be 23 6c f0 3d ed dc 06 be
       0.30356586 -0.2854145 0.117393754 -0.13170214
000260 aa 13 e3 3b c3 f0 5a be bc 9b 90 3e 25 4e 6b be
       0.0069298344 -0.21380906 0.28243816 -0.22979029
000270 68 ca 58 3e 44 a6 1d 3e c7 a7 92 3d be 30 79 be
       0.21170962 0.15395457 0.07160907 -0.24335
000280 49 32 a5 3e fa 0c c3 3d e4 0f 5d 3d c8 bb a5 be
       0.32264927 0.095239595 0.053970233 -0.32369828
000290 2a 2b 0b 3e c8 77 85 bd 90 2c 2b be a3 fc 95 3e
       0.13590685 -0.06516987 -0.16716218 0.2929431
0002a0 15 9e a0 3d 16 48 6a be a1 aa 2f be b7 88 ea bc
       0.07842652 -0.22879061 -0.17154934 -0.028629644
0002b0 5b 3f 1b 3e b5 14 d1 bd eb 31 3c be dc 72 ca bd
       0.15160887 -0.10209028 -0.18378417 -0.09885189
0002c0 11 25 bc be fb 34 cc 3d de e3 80 3e 8a ed b7 be
       -0.3674703 0.09971043 0.2517385 -0.35923415
0002d0 52 31 78 3d ae 02 20 3e 64 8d ca 3d e9 00 b4 bd
       0.06059391 0.15626022 0.09890249 -0.08789236
0002e0 39 03 61 3e 7b 3e 8b 3e 22 af ed 3d 76 f3 53 bd
       0.21973886 0.27196106 0.116056696 -0.051745854
0002f0 bd d2 ad bd 1b 72 45 3d b4 9c ca bd f0 64 00 be
       -0.08487461 0.048204523 -0.0989317 -0.12538505
000300 90 fb 7a 3e 95 e2 d7 3e 99 6c e4 bc 4b bb b6 bd
       0.24510026 0.42165056 -0.027883815 -0.08922442
000310 29 a0 20 3d 2f 64 ff bc 4c d2 9d 3d 52 a3 aa 3d
       0.03921524 -0.031175701 0.077061266 0.08331932
000320 83 8c ac be 14 bf 36 be 4d be 81 3e 71 b7 14 3e
       -0.33700952 -0.17846328 0.253405 0.14523102
000330 08 8f 1a bc b4 97 52 be 8d 89 22 be 38 40 9e be
       -0.009433515 -0.20565683 -0.15872784 -0.3090837
000340 ae 2e e1 bd aa cb e8 3d fd 6b 4a 3e a3 d3 29 3e
       -0.109952316 0.11366971 0.19767757 0.16584639
000350 02 5a a7 be c5 0a 57 be cc fc 95 bd b9 1b ad 3e
       -0.32685858 -0.21000202 -0.07323608 0.33810213
000360 fc 42 9c 3c 94 18 9b bd 9d 38 12 3e 9a c4 1b be
       0.01907491 -0.07573047 0.14279409 -0.15211716
000370 ed 02 73 be 4e 5f 76 3e 4a b8 28 be db 59 e7 bc
       -0.23731585 0.24059793 -0.1647655 -0.028241089
000380 8f d7 9e be ea 57 9c 3e 95 ad 78 3e e7 39 19 3e
       -0.31023833 0.30535823 0.24284966 0.14963494
000390 0a 0a 83 be 01 04 a8 be 9c e4 91 be 46 f3 67 3e
       -0.25593597 -0.32815555 -0.28494728 0.22651395
0003a0 01 49 43 3e 0a 03 a9 3e 54 22 3f 3e 91 3a a0 3d
       0.19070818 0.3301013 0.18665439 0.07823671
0003b0 35 a1 d0 3c 68 6c 8f be 90 d9 a5 be 7d b0 ad be
       0.025467495 -0.28012395 -0.3239255 -0.33923712
0003c0 2f cd 8c 3e a3 5a cd bd 27 f8 21 bd 0d 43 4a be
       0.27500293 -0.10027053 -0.039543297 -0.1975214
0003d0 92 a7 9e bc bd b8 78 be e2 bf 4e be 76 82 b0 3d
       -0.019367013 -0.24289222 -0.20190385 0.086186334
0003e0 b7 e6 00 be 05 b7 83 3e 5a 41 d3 bd ce fe 7e be
       -0.1258801 0.2572557 -0.10315199 -0.24901888
0003f0 9c 1b 58 bd 6f e9 24 be f1 d6 d4 bd 7f 01 a7 be
       -0.052760705 -0.16104673 -0.10392559 -0.3261833

spatial_encoder.feat_proj.bias f4 [64]
000000 76 0b b2 3d 50 60 85 be b7 3d 81 be 99 92 90 be
       0.08693592 -0.26050043 -0.25242397 -0.28236845
000010 10 f2 91 3e f7 ba ad be 86 8d 90 3e 9f 09 89 bc
       0.28504992 -0.33931705 0.28232974 -0.01672822
000020 02 ec b5 bc 3f 6b 67 3e 22 47 b4 bc a6 b9 70 3e
       -0.022207264 0.22599505 -0.022006575 0.2350832
000030 0c 21 84 3e cd f9 93 be 7d 82 19 3e a4 1f 93 3d
       0.25806463 -0.2890152 0.14991184 0.07183769
000040 1b 6f 95 3d 2a f8 6c 3d 19 74 e4 3d 11 56 35 be
       0.07296582 0.057853855 0.11154956 -0.17708613
000050 f4 ea 5f bd e5 83 b0 3e 99 26 72 3e 14 12 d3 bc
       -0.054667428 0.34475628 0.23647536 -0.025765456
000060 31 3e b3 be bd 6a 53 3d 31 65 7e be 98 96 8a 3e
       -0.35008386 0.051615465 -0.24843289 0.2706802
000070 b4 46 4f be 80 7c 31 bd ff ff 78 bd 3f 44 87 3d
       -0.20241815 -0.043331623 -0.060791012 0.06604814
000080 96 a3 af 3e 3e f8 00 3d 2c 0b 3a 3e 29 28 90 3e
       0.34304494 0.031486742 0.18168324 0.2815564
000090 43 b0 8c 3e 0a de f6 bd 17 5a c5 bd aa e3 2a 3e
       0.27478227 -0.12054069 -0.09636324 0.1668841
0000a0 d6 a2 94 bd ed eb 29 3e 4c 80 be bd cb 9d 4e be
       -0.07257621 0.16593905 -0.093018144 -0.2017738
0000b0 b6 32 ec 3d 43 08 73 3d f1 e1 25 3e 0b 98 ab 3e
       0.1153311 0.05933405 0.16199471 0.33514437
0000c0 a4 f8 63 3e 6a 29 a2 3e 41 67 bc 3c 52 f5 97 be
       0.22262818 0.3167222 0.022998454 -0.29679352
0000d0 f6 65 7a be 2e 83 63 be c2 8b 9e be 14 ad 3d be
       -0.24452958 -0.2221801 -0.30966002 -0.18523055
0000e0 51 80 a3 be df ba ab be 95 9e 4e be f9 be b4 be
       -0.31933835 -0.3354101 -0.20177682 -0.3530195
0000f0 4e 53 85 be 8a 3d b8 3d e9 6b 91 3e eb 64 f0 bd
       -0.2604012 0.08996113 0.2840264 -0.117379986

spatial_encoder.pos_encoder.0.weight f4 [32, 4]
000000 10 40 e6 bd 68 41 ce 3d c0 16 33 bf 5d d4 80 bf
       -0.11242688 0.10071069 -0.6995659 -1.0064808
000010 a4 c4 9a 3e 99 58 e7 be 50 78 79 3d 83 af ed 3e
       0.3022815 -0.45184782 0.060905755 0.46422967
000020 02 f6 ce 3d 49 e2 49 bd 4d 82 32 bf ab 60 44 bf
       0.10105516 -0.049288068 -0.69730073 -0.76710004
000030 d4 7b cc ba 68 d2 8e 3e 95 4b 23 3f 66 12 9a 3f
       -0.0015600869 0.27894902 0.63787204 1.2036865
000040 98 67 c3 be c0 8e 75 3c 54 d0 7f be 2a 83 ca be
       -0.38164973 0.0149876475 -0.24981815 -0.39553195
000050 ca b1 63 bd 91 01 81 be 5c 4a 48 3f 2d 0e 52 3f
       -0.055589475 -0.25196508 0.78238463 0.8205288
000060 67 d4 76 be 27 de 7b 3e 47 7a ec be 97 89 61 be
       -0.24104463 0.24596463 -0.4618704 -0.22025143
000070 b7 a8 10 be bf ad 9b be 11 d0 d7 3d 0e e6 28 3f
       -0.1412686 -0.30405995 0.105377324 0.65976036
000080 09 bf c1 3e 85 62 98 3e be fd d5 bd 4e 83 83 bf
       0.3784106 0.29762664 -0.10448788 -1.0274446
000090 0a 7b a7 be d2 68 df 3e 74 1a 35 3e 80 a4 59 3c
       -0.3271106 0.4363466 0.17685872 0.013283849
0000a0 85 bc 09 3d e9 d6 86 be 18 d1 8e 3e 4d f6 9f 3f
       0.03362705 -0.26335838 0.278939 1.249704
0000b0 b8 37 b0 bd 7d fa 2b be 8b db 5c bf 00 8c 86 bf
       -0.086043775 -0.16794772 -0.86272496 -1.0511475
0000c0 62 f4 a1 bc 1e 16 13 be a5 56 b8 3e 6f 24 74 3f
       -0.019769851 -0.14363906 0.36003605 0.95368093
0000d0 d4 69 fa be f8 11 18 3e f0 44 a9 be d4 e1 79 be
       -0.48908865 0.14850605 -0.33060408 -0.24402553
0000e0 d0 8f 44 3e 00 8d cb 3e 1c ef 0b be 1c 36 52 be
       0.19195485 0.39756012 -0.13665432 -0.20528454
0000f0 9c 7f e5 be 1a 4e 81 be c5 16 e2 be 6a 09 f6 bd
       -0.4482392 -0.252549 -0.44157997 -0.12013514
000100 ee 4f 9b 3d 58 68 87 be 68 20 3d 3f 83 5c c7 3f
       0.07583605 -0.26446795 0.73877573 1.5575107
000110 0e 6e f0 be d4 58 da be a1 86 9a be a5 cd 66 bf
       -0.46958965 -0.42645895 -0.3018084 -0.9015754
000120 a4 a2 c2 bd 2e 98 ed be f5 04 6d 3d 27 0c 6a bf
       -0.095036775 -0.46405166 0.057866056 -0.91424793
000130 08 6f d9 3e aa f8 72 3e 81 7d ff 3e bf 2c 8c 3f
       0.42467523 0.2372767 0.4990044 1.0951155
000140 dc 97 3b bd 28 b4 4f bd 6c 4e 28 be 0c f4 e4 3f
       -0.04579912 -0.05070892 -0.16436166 1.7886977
000150 bf 47 cb be ff c5 84 3e 27 38 1e bd e4 14 85 3f
       -0.39703175 0.2593231 -0.03862777 1.0397
000160 bb 83 54 3e 74 75 08 be 9f 57 6d be 8c 86 4b bf
       0.20753376 -0.13326055 -0.23177956 -0.7950218
000170 93 51 8d 3e 60 98 ca be e8 61 96 bd 38 47 62 3e
       0.276013 -0.39569378 -0.07342893 0.2209748
000180 a4 61 f8 3e 9e 1c 7e 3e ba 0b ba be 7f fe bd 3e
       0.48511994 0.24815604 -0.36337072 0.37108228
000190 62 43 e2 bd bd 62 db bd f5 42 e7 be a4 95 a4 bd
       -0.110480085 -0.10712192 -0.45168272 -0.08036354
0001a0 b1 8d b9 3e a5 37 f9 bd 73 2d 41 bf ee f5 22 bf
       0.36240914 -0.121688165 -0.75459975 -0.6365651
0001b0 80 2b 24 be fa b9 e9 3e 46 32 de be 70 ba 21 be
       -0.16032219 0.456497 -0.4339773 -0.15793777
0001c0 3d 87 ed be 76 92 38 be 17 84 21 3e 38 d6 ea 3e
       -0.4639224 -0.1802462 0.15773045 0.4586656
0001d0 34 c8 dc 3d d3 cd 37 3f b1 f3 03 3f 05 9e 82 3f
       0.10780373 0.7179844 0.5154372 1.0204474
0001e0 22 c8 e8 3e 7c 96 2a 3f f6 2c b8 3d 54 df 8e 3f
       0.4546519 0.6663587 0.089929506 1.1161904
0001f0 56 6f 9e 3e cd 11 d4 be e6 14 30 bf d6 c7 97 bf
       0.30944318 -0.4141983 -0.6878189 -1.185786

spatial_encoder.pos_encoder.0.bias f4 [32]
000000 34 5f 88 3e 24 c1 c2 be f1 3b 6c 3e 0f 10 22 3e
       0.26635134 -0.3803798 0.23069741 0.15826438
000010 d2 69 de be 40 29 18 3e 35 5f 7e bd bc 80 6c 3e
       -0.4344011 0.14859486 -0.062102515 0.23095983
000020 58 2a c2 3e 4a 80 fe be bb 93 ea 3e 0f 86 e5 3e
       0.3792293 -0.49707252 0.45815834 0.4482884
000030 3e 9a 4b 3e 5a f9 e9 be a4 e5 36 be 3c 1b 1d be
       0.19883057 -0.45698053 -0.17861038 -0.1534242
000040 ba 01 b5 bc 2e 65 ac 3e 5a c9 7e 3e 51 d5 ca 3e
       -0.02209555 0.33670944 0.24881497 0.39615873
000050 45 2a d7 bc 14 57 2c 3e ce 04 5e 3e d4 97 d5 be
       -0.026265273 0.16830093 0.2168152 -0.41717398
000060 4f 89 00 bf 81 48 86 be cb 22 b4 3e 80 03 f1 be
       -0.50209516 -0.2622719 0.35182795 -0.47072983
000070 65 48 ec be bf 77 8f 3e 45 33 8a 3e 23 8b ea 3e
       -0.46148983 0.28021047 0.2699224 0.45809278

spatial_encoder.pos_encoder.2.weight f4 [64, 32]
000000 5a 2e 48 bf ad 70 e9 bd e4 d5 13 bf be 66 57 3f
       -0.78195727 -0.11398444 -0.57748246 0.8414115
000010 2e 9f d8 3d db be 0f 3f e7 66 8b 3d b5 47 d4 3e
       0.10577236 0.561506 0.068067364 0.41460958
000020 fb f2 1e bf ad 5e a4 bd dc 05 3b 3f 5f fd 50 bf
       -0.6208951 -0.080258705 0.73055816 -0.81636614
000030 27 e8 03 3f 7b 24 04 3e 60 76 64 3d 79 ba 83 3d
       0.5152611 0.12904541 0.055776954 0.06432051
000040 02 c0 77 3f a8 e7 06 bf 2a ba cc be 94 b9 07 3f
       0.96777356 -0.5269723 -0.39985782 0.53017545
000050 09 a7 a8 3f 21 cc 2d 3f 45 99 39 bf cb c4 2f 3e
       1.3175975 0.678896 -0.72499496 0.17164914
000060 26 8f aa bd 1e f5 1e bd e4 1e fd be fc ec eb bd
       -0.08328085 -0.03880798 -0.4943763 -0.115198106
000070 c5 d7 2e be 9c b2 2d 3f 63 3f 17 3f fd b5 56 bf
       -0.17074497 0.6785066 0.59081095 -0.8387144
000080 f2 1a 13 bf d5 0a 33 3e a4 f0 db be d8 f9 0f 3f
       -0.5746299 0.17484601 -0.42957032 0.56240606
000090 67 9b d8 bd c7 07 9d 3e 0d bd 22 bd 6a f8 09 3e
       -0.10576516 0.30669996 -0.039731074 0.13473669
0000a0 07 31 da be c0 9c 6e 3c 84 ad d2 3e c6 cb 08 bf
       -0.4261553 0.014563739 0.41148007 -0.53435934
0000b0 6f 85 da 3e 87 7e 8f bd 48 71 3c 3d 07 42 7c 3d
       0.42679927 -0.07006555 0.04600647 0.061586406
0000c0 e2 27 38 3f d2 b4 04 bf d3 78 82 be 49 a9 e7 3e
       0.71935856 -0.5183841 -0.25482807 0.45246342
0000d0 7a b8 8a 3f a1 6d 0c 3f 16 a4 f7 be 9c e9 f3 3d
       1.0837548 0.5485478 -0.48367375 0.11909792
0000e0 e4 7f b6 3d 02 b7 1d be 53 13 9b be 40 71 26 be
       0.08911112 -0.15401843 -0.3028818 -0.16254139
0000f0 1e b2 be bd f9 80 be 3e 18 6e 5e 3e 02 e8 a5 be
       -0.09311317 0.37207773 0.21721685 -0.3240357
000100 05 eb 32 bf dd 7c a8 3d e2 9f 55 bf f2 19 4d 3f
       -0.6988986 0.08226941 -0.83447087 0.80117714
000110 0e 08 61 bd 82 13 d4 3e e1 a7 18 3d 0f c9 bc 3e
       -0.054939322 0.41421133 0.037269477 0.36872146
000120 e0 37 b8 be 6c 21 dd bd 8f ff 07 3f 37 78 2c bf
       -0.3598013 -0.1079739 0.53124326 -0.67370933
000130 bd 75 2c 3f 9e 31 8b 3d ca b6 c6 3d 7b 14 03 bd
       0.67367154 0.06796573 0.09702833 -0.032001954
000140 5a e8 a1 3f b0 d1 d2 be b4 04 20 bf 2e 2d 46 3f
       1.2649033 -0.41175604 -0.62507176 0.7741269
000150 3d b2 ce 3f 19 29 41 3f 06 40 36 bf 34 a5 b2 bd
       1.6148144 0.75453335 -0.7119144 -0.08722916
000160 bb b5 3f bd 9d d3 54 3c 98 18 b1 be a2 ac ce bd
       -0.04680417 0.012989906 -0.34589076 -0.10091521
000170 b5 70 bb 3d 3a ea 06 3f aa 35 2b 3f 40 c5 2f bf
       0.091523565 0.5270115 0.6687876 -0.68660355
000180 a1 56 91 3e a4 8a e8 bd 8e b0 a4 3e 2b f0 b5 be
       0.28386405 -0.113545686 0.3216595 -0.35534796
000190 ae c3 f2 bd 18 c7 c1 be 1f 9d 01 3d 3a 0b 79 be
       -0.11853729 -0.3784721 0.031643983 -0.24320689
0001a0 01 86 cf 3e 63 c0 30 be 30 9f 08 bf 42 ef 9a 3e
       0.40531924 -0.1726089 -0.533679 0.30260664
0001b0 44 e8 eb be c6 e3 83 bd b8 5d cf 3c 44 cf 10 bd
       -0.46075642 -0.06439929 0.025313243 -0.035353914
0001c0 a0 39 09 bf 58 ca e8 3e 55 f8 c8 3e e9 69 f4 be
       -0.53603554 0.45466876 0.39251962 -0.47737053
0001d0 e2 9d 67 bf f6 24 a1 be 5b ba 97 3e 29 2c b8 3d
       -0.90475285 -0.3147351 0.29634365 0.08992798
0001e0 2a 96 e8 3d 05 32 8a 3d 18 e4 db 3e 77 ee 2b 3e
       0.113567665 0.06747822 0.4294746 0.16790186
0001f0 df a1 0c 3d a3 28 f1 be e6 24 24 be 64 1a b0 3e
       0.03433406 -0.47101316 -0.160297 0.34395134
000200 fd 6d 3a bf 9f 51 2a 3e c8 ea 07 bf a6 8b 36 3f
       -0.7282408 0.16632698 -0.5309262 0.71306837
000210 40 8d 35 3c b5 55 ca 3e 26 b7 81 bc a6 b7 e4 3e
       0.01108104 0.39518514 -0.015834402 0.44671363
000220 f7 24 f7 be f0 f9 77 3c ac 13 13 3f b9 c6 3c bf
       -0.4827039 0.015135273 0.5745189 -0.73740727
000230 7b 86 39 3f 70 9c 32 3c 72 88 eb 3d 54 0e e7 bc
       0.72470826 0.010901555 0.11500634 -0.028205074
000240 56 15 81 3f 4b 2a cd be 32 ab f7 be 6b ca 37 3f
       1.0084636 -0.4007133 -0.483728 0.7179324
000250 76 fb a2 3f cb 11 3d 3f fb c4 ea be 84 d8 39 bd
       1.273299 0.73855275 -0.4585341 -0.0453725
000260 b7 68 13 be 11 40 04 3d 16 da eb be 94 db 3c bd
       -0.14395414 0.03228766 -0.46064824 -0.046107844
000270 35 68 d2 bc 0a 2e 06 3f b1 a3 1c 3f b5 4f 16 bf
       -0.025684455 0.52414 0.61187273 -0.58715373
000280 a6 07 50 bf 64 29 8d bd 90 c7 4c bf 73 7e 38 3f
       -0.8126167 -0.0689266 -0.7999201 0.72067946
000290 d7 c6 22 3e 50 d0 34 3f 00 3d 19 3e 25 26 99 3e
       0.15896164 0.7063036 0.14964676 0.29911914
0002a0 7b a2 06 bf a0 15 7b 3d 87 f6 08 3f b1 05 48 bf
       -0.52591676 0.06129992 0.5350117 -0.78133684
0002b0 6d 56 31 3f 7b fa ca bd 23 76 0c be a5 2e 1f 3e
       0.692725 -0.099110566 -0.1371694 0.15545137
0002c0 c7 65 ac 3f 00 85 01 bf 19 dc dc be ef b7 25 3f
       1.346856 -0.50593567 -0.4313667 0.64733785
0002d0 33 31 c6 3f a0 60 37 3f 3e 89 34 bf ab 72 0f bd
       1.5483764 0.71631813 -0.70521915 -0.035021465
0002e0 dd 9c 13 be 28 13 2d 3d 1e ed 2a bf e0 a7 d2 3b
       -0.14415307 0.042254597 -0.6676806 0.0064287037
0002f0 b6 00 39 3e f5 f2 13 3f e9 c8 08 3f 6d 97 25 bf
       0.18066677 0.577926 0.53431565 -0.6468418
000300 dc d8 a6 3e 3a fa 44 bc b0 cf 18 3f 32 e9 03 bf
       0.32587326 -0.012022549 0.59691906 -0.515277
000310 ca 80 01 be fc ff c0 be 94 26 53 bd 86 9f f1 bd
       -0.12646785 -0.376953 -0.051550463 -0.11798005
000320 1b c8 ad 3d 58 3e 92 3d 7d f4 8f be af 84 c9 3e
       0.08485433 0.071407974 -0.28116217 0.39359042
000330 21 56 f0 be 9e fb 63 bd 64 cb 98 bd 86 43 79 bd
       -0.4694071 -0.055659883 -0.07460669 -0.06085541
000340 53 80 88 bf 65 6c 09 3f da 4d aa 3e ea cf 17 bf
       -1.0664161 0.5368102 0.3326252 -0.59301627
000350 ed 5f c1 bf c0 7c 8e be 06 3f 93 3e ef 48 95 bd
       -1.5107399 -0.27829552 0.2875902 -0.072893016
000360 bd 23 0d 3e 74 18 bd 3d b0 ab e2 3e 09 e1 2b be
       0.13783164 0.0923318 0.44271612 -0.16785063
000370 34 4e 04 be c4 c7 10 bf 1c 45 a7 be 66 75 e6 3e
       -0.12920457 -0.5655482 -0.32669914 0.45011443
000380 70 18 e3 3e 70 6a 85 bc 31 f8 e3 3e 6c 81 28 bf
       0.44354582 -0.016286105 0.44525293 -0.6582248
000390 6c 1a 47 bd c0 19 95 be 3a 90 37 3d d5 d6 3a be
       -0.048609182 -0.29121208 0.04481528 -0.18246014
0003a0 d5 f1 de 3e 24 04 51 bd fc 52 e3 be f0 4d 34 3f
       0.43543878 -0.05102934 -0.4439925 0.70431423
0003b0 61 f3 f0 be 44 1d 8d bd d1 6f 1a 3e 4c 85 0b bd
       -0.47060683 -0.068903476 0.15081717 -0.03406267
0003c0 17 e3 82 bf 62 2d 1b 3f e3 a7 28 3f ac b8 d3 be
       -1.0225552 0.60616124 0.65881175 -0.4135183
0003d0 a6 b1 96 bf 14 5a 10 bf 06 d1 1a 3f a9 56 1b 3e
       -1.1772964 -0.5638745 0.60475194 0.15169777
0003e0 d3 30 37 be 74 58 cf bc d1 c3 80 3e 5c f0 06 3d
       -0.17889719 -0.025310732 0.25149396 0.03294407
0003f0 50 e0 88 3d 94 2d 14 bf db cc 06 bf c7 4d 2a 3f
       0.06683409 -0.57882047 -0.52656335 0.6652493

spatial_encoder.pos_encoder.2.bias f4 [64]
000000 bd 24 73 bc 27 5e 96 3d 9b 82 1e be d0 21 0c 3e
       -0.014840302 0.07342177 -0.1547951 0.13684773
000010 dd 82 a4 bd e0 f5 44 bd 4d 76 dd bd 9c ea 86 bd
       -0.08032773 -0.048086047 -0.1081358 -0.06587717
000020 02 99 8b bd 65 16 21 be f1 69 77 3d 32 85 15 ba
       -0.06816293 -0.15731199 0.060403768 -0.00057037466
000030 29 12 31 3e a2 41 f4 3d 7d 78 1d 3e e7 07 55 3d
       0.17292084 0.11926581 0.15377994 0.05200949
000040 95 43 be 3d 72 81 29 3e d3 a1 14 3e b6 17 0b be
       0.09290234 0.16553286 0.14514856 -0.13583264
000050 ae 61 22 bd 62 96 2e be 69 42 db 3b 6a cf 7f bd
       -0.039643936 -0.17049554 0.0066912663 -0.062453665
000060 49 1a 1d 3e b4 f3 e4 3c 40 33 ff 3a 21 f0 02 be
       0.15342058 0.027948238 0.001947023 -0.12786914
000070 66 0e 0e be 9f 08 e4 3c e3 ea b3 bd d5 43 a6 bd
       -0.1387268 0.027836142 -0.087850355 -0.08118407
000080 9f f2 fd 3d 84 c0 bc bd bb 25 a1 bd 63 fd 0a 3e
       0.12399792 -0.09216407 -0.07868525 0.13573222
000090 23 73 8d 3d a7 b5 cd bd 33 4e 5b 3d 57 85 b6 3d
       0.06906726 -0.10044413 0.053541373 0.08912151
0000a0 4d c8 20 be 74 40 07 3d 0a 60 25 3d 87 a7 e1 bb
       -0.15701409 0.03302045 0.040374793 -0.006886426
0000b0 4d 93 2d 3e 1a 4f ef bd f6 41 c4 3d 40 53 c0 bd
       0.16950722 -0.11685009 0.095828936 -0.09390879
0000c0 57 fd 1a be 78 b9 f6 3d d6 aa ad bd a6 21 08 3c
       -0.15135704 0.12047094 -0.0847985 0.008308804
0000d0 b9 69 be 3d 41 17 17 be d9 f1 1a be dc 85 76 3d
       0.09297509 -0.14754964 -0.1513132 0.060186252
0000e0 5a d6 1d 3e 88 4a 99 bc 42 fe fe 3d 77 70 7e 3d
       0.154138 -0.018712297 0.124508396 0.062118974
0000f0 b0 8e 4e 3d 46 c9 e6 bd 01 48 2c 3e 4a d0 a5 3d
       0.050429046 -0.112688586 0.16824342 0.080963686

spatial_encoder.attention.in_proj_weight f4 [192, 64]
000000 48 81 8d 3d 19 29 0d 3e b8 ab 05 bd ce d8 18 bd
       0.06909424 0.13785209 -0.032634467 -0.037316136
000010 46 ee c4 bd 20 6d 3f bc 64 76 0f be 46 ed d3 3d
       -0.096157596 -0.011683732 -0.14010006 0.10347991
000020 17 3b 07 3e 68 3e 27 3d e7 43 14 3e e0 ed 9d 3d
       0.13206135 0.040831 0.14479028 0.07711387
000030 8e d5 cf 3d 7f cb 10 3e ce 90 d7 bd 20 c9 44 bc
       0.10148154 0.14140128 -0.10525666 -0.012010843
000040 b4 94 6b 3d be d8 27 bd b5 68 de bd 4c e5 44 bd
       0.05751486 -0.040978186 -0.10859815 -0.048070237
000050 e9 6c 9b bd 30 ef 5b bd ba d9 ee bd 6e 27 3d bd
       -0.07589132 -0.053694904 -0.11662622 -0.04618018
000060 92 a6 b3 3d bf 9c 89 bd 14 8e 85 3d f6 eb 00 be
       0.08772005 -0.0671935 0.0652124 -0.12590012
000070 d2 91 c5 bd 90 fc 81 3c 65 2d 11 3e f5 c6 10 be
       -0.09646954 0.015867501 0.14177473 -0.14138396
000080 64 79 88 3d e0 57 db 3c 74 18 00 be cb a5 e3 bd
       0.066637784 0.0267753 -0.12509328 -0.11115607
000090 98 f7 9d 3d e4 a9 9c bd f2 b8 db 3d 5e d2 d8 bd
       0.077132404 -0.076495916 0.10728635 -0.10586999
0000a0 2a db ec 3d fd f3 9f bd 84 04 7e 3d 30 9f 3b 3d
       0.1156524 -0.07810209 0.062016025 0.04580611
0000b0 7d 06 f6 bd 23 6e a4 bd b6 e5 17 bd 00 ac fe 39
       -0.12012956 -0.080288194 -0.037084304 0.00048574805
0000c0 78 d8 9a 3d f3 e1 80 bd 78 85 b8 3c e2 13 aa bd
       0.075608194 -0.062930964 0.02252458 -0.083045736
0000d0 ba 08 95 bd e2 9a cc 3d 60 be 2b bd 71 5d 09 be
       -0.07277055 0.09990479 -0.041929603 -0.13414551
0000e0 a0 b8 d2 3b c0 c8 b2 bc 94 44 32 3d cb f0 9f bd
       0.0064307004 -0.02182424 0.043522432 -0.078095995
0000f0 e0 11 d8 3b ed ad 9a bd 22 7d bd bd fc 57 0f 3d
       0.0065939277 -0.07552705 -0.09252383 0.034996018
000100 98 d1 41 3d 40 04 e8 3c cf ce 10 3e 50 85 68 3c
       0.047319025 0.028322339 0.14141391 0.01419194
000110 c0 4b 55 3c 00 f6 a3 bc 14 90 17 be 00 42 75 3d
       0.0130185485 -0.020014763 -0.14801055 0.059877396
000120 ba 6a f4 3d e0 8d 78 3c 5a 86 f4 bd 75 c2 0c 3e
       0.11934419 0.015170544 -0.11939688 0.13746054
000130 c4 7a 0c 3d 22 c8 e2 3d 84 2c 88 3d 28 d2 c5 3c
       0.034296766 0.110733286 0.06649116 0.024148062
000140 3c c1 38 bd 18 bd 00 3d 5c c4 49 3d 00 10 18 bc
       -0.045106158 0.031430334 0.04925953 -0.009281158
000150 3a 44 c8 bd 77 c6 a4 bd 5f af 0f be c0 40 75 bd
       -0.09778638 -0.08045667 -0.14031743 -0.059876204
000160 18 2e ca bc 37 37 00 3e 03 b7 a7 bd 3c 41 1a be
       -0.024680182 0.12521063 -0.081892036 -0.15063947
000170 c0 d9 ab 3d 65 2a 07 3e a2 8c f4 bd 80 66 c8 ba
       0.08391142 0.13199766 -0.11940886 -0.0015289336
000180 0c 5d 47 3d 8e 21 ca 3d 00 23 e1 bc 66 cd 8e 3d
       0.04867272 0.09869681 -0.02748251 0.069727704
000190 9e e6 f0 3d 6a 7a b7 3d 0a c3 98 3d 9e ac be 3d
       0.11762737 0.089588955 0.07459076 0.09310268
0001a0 e1 7a 0c be 54 54 05 3d f6 c9 f1 3d 48 6b f8 bd
       -0.1371875 0.032551125 0.11806099 -0.12129837
0001b0 e2 6a 09 be 4a 75 01 be 70 88 40 3d 8f 7d 11 3e
       -0.13419679 -0.12642398 0.047005117 0.14208053
0001c0 b0 81 63 bc 8c 46 79 bd c0 70 14 3c 83 42 01 be
       -0.0138859 -0.060858294 0.009060085 -0.12623028
0001d0 08 1a d9 3c 16 22 ce bd 32 08 d3 bd 74 b6 e4 bd
       0.02650167 -0.10065095 -0.103042975 -0.11167613
0001e0 ae 87 31 bd 0e 55 cc 3d c8 ba fe 3c 02 33 da 3d
       -0.043342285 0.099771604 0.031094924 0.1065426
0001f0 40 3e 17 be ec 56 ff bd 80 1b c0 3d ba f9 f6 3d
       -0.1476984 -0.12467751 0.09380245 0.1205935
000200 c7 21 05 3e f9 97 11 be 86 70 8c 3d 75 95 1a be
       0.13001166 -0.14218129 0.068574 -0.15096076
000210 be 73 39 bd 80 3f 4b 3b 20 9e 92 3d fa 8e 3f bd
       -0.045276396 0.003101319 0.07159066 -0.046767212
000220 21 8d 07 be 45 56 18 be f6 77 7b bd f6 f0 ee 3d
       -0.1323743 -0.14876659 -0.0613937 0.116670534
000230 b2 09 88 3d b4 15 9b 3d f9 92 fd bd 5a dc 0c be
       0.06642474 0.07572499 -0.123815484 -0.13755932
000240 db 0c 11 3e 76 cc cc 3d d2 23 87 bd 90 e8 52 3c
       0.1416506 0.09999935 -0.06598629 0.01287283
000250 a2 e0 e1 3d 09 1e 0d 3e e2 47 fc bd 72 65 9b bd
       0.110291734 0.13780989 -0.12318398 -0.075877085
000260 fc ad 73 3d ca 8d ef 3d 68 30 da 3c 40 cc 1a bc
       0.059492096 0.11696966 0.02663441 -0.009448111
000270 20 51 c2 3b a1 a8 0e 3e 50 2a f6 bd 70 d6 8e 3d
       0.005930081 0.13931514 -0.12019789 0.069744945
000280 de 78 e0 bd 40 7c 6e 3c 1c 17 14 be e2 11 cb 3d
       -0.109605536 0.014555991 -0.1446194 0.0991552
000290 eb b0 ae bd f0 9e 26 3c a0 a2 c4 bd d0 b4 65 3c
       -0.08529838 0.01016973 -0.09601331 0.01402016
0002a0 ed ad 98 bd ca 58 a0 bd de df 87 bd 9c 89 c2 3d
       -0.07455049 -0.07829435 -0.06634496 0.09498903
0002b0 e8 43 af 3c b2 83 21 bd 45 85 05 3e c8 c5 f5 3c
       0.021394685 -0.039432235 0.1303912 0.030001536
0002c0 aa ed 4a bd a0 d6 e2 bb e2 2d 75 bd 28 c3 78 bd
       -0.04954306 -0.006922558 -0.05985821 -0.06073299
0002d0 8e d1 43 bd 60 70 15 3d 28 97 0b be 06 2c f4 bd
       -0.04780727 0.036484122 -0.1363188 -0.11922459
0002e0 3a 78 d2 3d 4a 2f 16 bd 40 38 b9 bb 48 01 5b 3d
       0.10276838 -0.036666192 -0.0056524575 0.05346802
0002f0 f1 3d 8c bd c6 a4 db 3d 96 f1 0d bd b0 d7 18 3c
       -0.06847752 0.107247874 -0.034654222 0.009328768
000300 5e 73 d9 bd a4 fd 7e 3d 7d d9 de bd 92 ae be 3d
       -0.10617708 0.06225361 -0.10881326 0.093106404
000310 28 8e b1 bc fe 05 65 bd 94 e9 51 bd dc 3d 6f 3d
       -0.02167423 -0.055913918 -0.051248148 0.058408603
000320 7b 8a 19 3e 34 5d 2a 3d d0 2d c0 3d bb 24 04 be
       0.14994232 0.04159279 0.09383738 -0.12904637
000330 68 fc 13 bd a7 8f b1 bd 20 08 e1 bd f8 56 d7 3c
       -0.036129385 -0.08669978 -0.10987878 0.026286587
000340 3a 09 44 bd e4 f2 0d 3d e6 55 79 bd 34 f2 0e be
       -0.04786036 0.034655467 -0.060872935 -0.1395958
000350 84 5b a1 bd 80 af 16 be b0 ce 07 3d 67 61 eb bd
       -0.07878783 -0.14715385 0.033156097 -0.114931874
000360 b6 03 f1 3d f6 b2 87 3d 62 eb af bd 52 34 33 bd
       0.11768286 0.06625931 -0.085898176 -0.04375107
000370 aa 74 0c be 1a e1 e1 3d 0b 35 8c bd 24 bb 03 bd
       -0.13716379 0.11029263 -0.06846055 -0.032160893
000380 a0 4b 39 3c 96 34 98 3d 8e f1 3a bd f0 b7 99 3d
       0.011309534 0.07431905 -0.04564052 0.075057864
000390 3c 41 a1 3d 58 f5 9a bc 6e e3 cf 3d cd 78 09 be
       0.078737706 -0.018915817 0.10150801 -0.13424988
0003a0 68 b9 aa bd 10 d7 44 bc c0 62 7f bc 38 77 5e 3d
       -0.08336145 -0.0120141655 -0.015587509 0.054312915
0003b0 0e 74 e2 3d cd 65 e2 bd ea 86 a4 3d 5c 75 16 3d
       0.11057292 -0.11054573 0.08033545 0.036733016
0003c0 15 32 02 3e 56 58 a7 3d 94 4c 08 bd 18 d6 b1 bc
       0.12714417 0.081711456 -0.033276156 -0.021708533
0003d0 76 a5 d0 bd 78 5c 0a 3d 06 5b f5 3d 3c c7 57 3d
       -0.10187809 0.03377959 0.11980252 0.05268024
0003e0 de 81 fd 3d 50 74 7a 3d e0 50 f1 3c 9c c1 07 bd
       0.12378286 0.06114608 0.02945751 -0.033143625
0003f0 8e 6f 07 be cc 19 eb bc 25 13 05 3e fd 4e 08 3e
       -0.13226148 -0.028698824 0.12995584 0.13311382

spatial_encoder.attention.in_proj_bias f4 [192]
000000 00 00 00 00 00 00 00 00 00 00 00 00 00 00 00 00
       0.0 0.0 0.0 0.0
000010 00 00 00 00 00 00 00 00 00 00 00 00 00 00 00 00
       0.0 0.0 0.0 0.0
000020 00 00 00 00 00 00 00 00 00 00 00 00 00 00 00 00
       0.0 0.0 0.0 0.0
000030 00 00 00 00 00 00 00 00 00 00 00 00 00 00 00 00
       0.0 0.0 0.0 0.0
000040 00 00 00 00 00 00 00 00 00 00 00 00 00 00 00 00
       0.0 0.0 0.0 0.0
000050 00 00 00 00 00 00 00 00 00 00 00 00 00 00 00 00
       0.0 0.0 0.0 0.0
000060 00 00 00 00 00 00 00 00 00 00 00 00 00 00 00 00
       0.0 0.0 0.0 0.0
000070 00 00 00 00 00 00 00 00 00 00 00 00 00 00 00 00
       0.0 0.0 0.0 0.0
000080 00 00 00 00 00 00 00 00 00 00 00 00 00 00 00 00
       0.0 0.0 0.0 0.0
000090 00 00 00 00 00 00 00 00 00 00 00 00 00 00 00 00
       0.0 0.0 0.0 0.0
0000a0 00 00 00 00 00 00 00 00 00 00 00 00 00 00 00 00
       0.0 0.0 0.0 0.0
0000b0 00 00 00 00 00 00 00 00 00 00 00 00 00 00 00 00
       0.0 0.0 0.0 0.0
0000c0 00 00 00 00 00 00 00 00 00 00 00 00 00 00 00 00
       0.0 0.0 0.0 0.0
0000d0 00 00 00 00 00 00 00 00 00 00 00 00 00 00 00 00
       0.0 0.0 0.0 0.0
0000e0 00 00 00 00 00 00 00 00 00 00 00 00 00 00 00 00
       0.0 0.0 0.0 0.0
0000f0 00 00 00 00 00 00 00 00 00 00 00 00 00 00 00 00
       0.0 0.0 0.0 0.0
000100 00 00 00 00 00 00 00 00 00 00 00 00 00 00 00 00
       0.0 0.0 0.0 0.0
000110 00 00 00 00 00 00 00 00 00 00 00 00 00 00 00 00
       0.0 0.0 0.0 0.0
000120 00 00 00 00 00 00 00 00 00 00 00 00 00 00 00 00
       0.0 0.0 0.0 0.0
000130 00 00 00 00 00 00 00 00 00 00 00 00 00 00 00 00
       0.0 0.0 0.0 0.0
000140 00 00 00 00 00 00 00 00 00 00 00 00 00 00 00 00
       0.0 0.0 0.0 0.0
000150 00 00 00 00 00 00 00 00 00 00 00 00 00 00 00 00
       0.0 0.0 0.0 0.0
000160 00 00 00 00 00 00 00 00 00 00 00 00 00 00 00 00
       0.0 0.0 0.0 0.0
000170 00 00 00 00 00 00 00 00 00 00 00 00 00 00 00 00
       0.0 0.0 0.0 0.0
000180 00 00 00 00 00 00 00 00 00 00 00 00 00 00 00 00
       0.0 0.0 0.0 0.0
000190 00 00 00 00 00 00 00 00 00 00 00 00 00 00 00 00
       0.0 0.0 0.0 0.0
0001a0 00 00 00 00 00 00 00 00 00 00 00 00 00 00 00 00
       0.0 0.0 0.0 0.0
0001b0 00 00 00 00 00 00 00 00 00 00 00 00 00 00 00 00
       0.0 0.0 0.0 0.0
0001c0 00 00 00 00 00 00 00 00 00 00 00 00 00 00 00 00
       0.0 0.0 0.0 0.0
0001d0 00 00 00 00 00 00 00 00 00 00 00 00 00 00 00 00
       0.0 0.0 0.0 0.0
0001e0 00 00 00 00 00 00 00 00 00 00 00 00 00 00 00 00
       0.0 0.0 0.0 0.0
0001f0 00 00 00 00 00 00 00 00 00 00 00 00 00 00 00 00
       0.0 0.0 0.0 0.0
000200 00 00 00 00 00 00 00 00 00 00 00 00 00 00 00 00
       0.0 0.0 0.0 0.0
000210 00 00 00 00 00 00 00 00 00 00 00 00 00 00 00 00
       0.0 0.0 0.0 0.0
000220 00 00 00 00 00 00 00 00 00 00 00 00 00 00 00 00
       0.0 0.0 0.0 0.0
000230 00 00 00 00 00 00 00 00 00 00 00 00 00 00 00 00
       0.0 0.0 0.0 0.0
000240 00 00 00 00 00 00 00 00 00 00 00 00 00 00 00 00
       0.0 0.0 0.0 0.0
000250 00 00 00 00 00 00 00 00 00 00 00 00 00 00 00 00
       0.0 0.0 0.0 0.0
000260 00 00 00 00 00 00 00 00 00 00 00 00 00 00 00 00
       0.0 0.0 0.0 0.0
000270 00 00 00 00 00 00 00 00 00 00 00 00 00 00 00 00
       0.0 0.0 0.0 0.0
000280 00 00 00 00 00 00 00 00 00 00 00 00 00 00 00 00
       0.0 0.0 0.0 0.0
000290 00 00 00 00 00 00 00 00 00 00 00 00 00 00 00 00
       0.0 0.0 0.0 0.0
0002a0 00 00 00 00 00 00 00 00 00 00 00 00 00 00 00 00
       0.0 0.0 0.0 0.0
0002b0 00 00 00 00 00 00 00 00 00 00 00 00 00 00 00 00
       0.0 0.0 0.0 0.0
0002c0 00 00 00 00 00 00 00 00 00 00 00 00 00 00 00 00
       0.0 0.0 0.0 0.0
0002d0 00 00 00 00 00 00 00 00 00 00 00 00 00 00 00 00
       0.0 0.0 0.0 0.0
0002e0 00 00 00 00 00 00 00 00 00 00 00 00 00 00 00 00
       0.0 0.0 0.0 0.0
0002f0 00 00 00 00 00 00 00 00 00 00 00 00 00 00 00 00
       0.0 0.0 0.0 0.0

spatial_encoder.attention.out_proj.weight f4 [64, 64]
000000 a0 55 9e 3c e2 11 b5 3d 52 f6 db bd d0 a7 dc 3c
       0.019327939 0.088413015 -0.10740341 0.026935488
000010 58 03 71 bd 30 f8 4f bc 84 bf 27 3d 60 c3 62 3d
       -0.05884108 -0.01269345 0.040954128 0.055362105
000020 88 e9 ea 3c c8 21 c6 bd 90 36 a0 bd 80 09 0f 3b
       0.02867581 -0.09674412 -0.07822907 0.002182573
000030 10 59 b1 bc 92 46 d6 bd dc 33 fc 3d 50 cd 80 3c
       -0.021648914 -0.10462679 0.12314579 0.0157229
000040 9e e6 b5 bd 58 8e 60 3d ac 76 5e 3d 6c 2b 7b bd
       -0.08881877 0.05482325 0.054312393 -0.061320707
000050 a6 5e 80 3d d4 ce 9e bd fc 65 31 3d fa 2c f3 3d
       0.06268053 -0.07754293 0.04331015 0.11873813
000060 58 fe a8 3d cc c4 7c 3d 88 55 d0 bc 88 3d c0 3c
       0.08251637 0.061711118 -0.02543141 0.02346684
000070 a4 ab 32 3d d8 1b fa 3c 50 74 cf bc 38 e0 8e 3c
       0.04362072 0.030530855 -0.025324017 0.0174409
000080 3c 60 4f bd 58 b5 90 bd 00 3f ec bd 14 b8 d0 bd
       -0.050628886 -0.070658386 -0.11535454 -0.1019136
000090 f2 b1 a0 bd 38 b5 f4 3d f8 ea cc 3c 36 95 e7 bd
       -0.078464404 0.11948627 0.025014386 -0.113077566
0000a0 f8 db 82 bd 70 2f ef 3c ac 3e 19 bd 48 ed 10 bd
       -0.06389612 0.029197425 -0.037413284 -0.03538254
0000b0 7c 43 40 bd 00 1a fa bc 60 93 6b 3c c0 8e f2 3b
       -0.046939358 -0.030529976 0.014378399 0.007402271
0000c0 b2 79 a4 3d 54 d3 a3 3d 92 af d2 3d 60 4c 82 bb
       0.08031024 0.07999292 0.10287394 -0.0039763898
0000d0 3c 9e 64 bd 00 a2 df 39 e0 86 a9 bd 64 78 51 3d
       -0.055814967 0.00042654574 -0.082776785 0.051140204
0000e0 90 17 77 bc 48 fb 23 bd 32 0a d9 bd c0 bd 76 3d
       -0.015081301 -0.040034562 -0.10597648 0.060239553
0000f0 96 e4 8e 3d b4 87 e9 3d e4 62 35 bd 60 45 1a 3d
       0.06977193 0.114028364 -0.044283763 0.037663817
000100 a0 65 9a 3b 7a 10 a3 bd c0 09 a0 bd 00 18 83 3d
       0.0047118217 -0.07962127 -0.0781436 0.06401062
000110 dc 06 93 bd 3c 6a ba 3d 3c df 32 3d 34 da 2e 3d
       -0.07179043 0.09102294 0.043669924 0.042688563
000120 68 98 a8 3d bc 94 7a 3d 10 d1 5c 3d d0 d2 84 3d
       0.08232194 0.061177 0.053910315 0.06485522
000130 9c 46 59 bd 86 c0 87 bd 28 99 bb bc 82 1f 8e 3d
       -0.053045854 -0.06628518 -0.022900179 0.069396034
000140 e2 27 b3 3d 7e 85 bc 3d ec 80 21 bd 10 ee 81 bc
       0.087478414 0.09205149 -0.03942959 -0.015860587
000150 70 d3 af bd 40 d9 9d 3d b0 c2 a9 bd a0 ae 52 bd
       -0.085852504 0.07707453 -0.08289087 -0.051436067
000160 5e 65 d3 3d 60 d8 f8 3c e0 56 56 bd 18 62 ac bd
       0.10322069 0.030376613 -0.052328944 -0.084171474
000170 68 0b b0 bd 3c 99 ce 3d 30 fc e9 bd 94 37 dd 3d
       -0.085959256 0.10087821 -0.11425054 0.10801616
000180 86 ca cc 3d 20 cc fd 3b 40 28 24 bc ca 18 c7 3d
       0.09999566 0.007745281 -0.010019362 0.09721525
000190 b4 c7 61 3d 06 0d f2 3d ca cc ce 3d dc df a7 bd
       0.055122092 0.1181889 0.10097654 -0.08196995
0001a0 8a fb 9d 3d c2 1b 81 3d 5e c3 b5 bd 30 e6 75 3d
       0.07713993 0.063041225 -0.08875154 0.060033977
0001b0 30 f8 84 bd d4 85 98 bd 80 d4 18 3b 40 a9 7b bc
       -0.064926505 -0.07447401 0.002332002 -0.015360177
0001c0 d8 aa 09 bd 00 e3 a7 bd ae 0a 8c 3d fa 3f ff 3d
       -0.033610195 -0.08197594 0.068379745 0.124633744
0001d0 58 e6 e2 bc 74 7c ac bd 00 35 d3 bb 58 6a de bd
       -0.027697727 -0.08422175 -0.006445527 -0.10860127
0001e0 e4 e2 cf bd 00 8f 2a bd 96 d8 a0 3d 0e 20 c4 bd
       -0.10150698 -0.04164028 0.078538105 -0.095764264
0001f0 d0 69 a3 bc e4 ee 84 bd d8 b8 eb bd 70 83 e6 bc
       -0.019947916 -0.06490877 -0.115098655 -0.028138846
000200 a0 98 ee bb 20 2d ac bc b0 2b bb 3d 80 16 4d 3d
       -0.007281378 -0.021017611 0.09139192 0.050070286
000210 60 62 9f 3d 7c 8b 48 3d 00 df 56 3c 44 f2 8a 3d
       0.077824354 0.048961148 0.013114691 0.0678449
000220 aa 50 a3 bd ca 70 82 3d 64 df 73 3d d8 4b 59 bd
       -0.0797437 0.06369169 0.059539214 -0.053050846
000230 c0 93 8c bb 72 a8 c1 bd 26 03 e0 bd 00 cc 10 b9
       -0.004290074 -0.094559565 -0.109381005 -0.00013808906
000240 48 5a b7 3c f8 e1 dc bc b4 2e 1e 3d f0 a1 c5 bd
       0.022381917 -0.026963219 0.03861876 -0.09650028
000250 fc b7 8c bd a8 b0 b0 3d ce 21 f9 bd 38 ca a0 3c
       -0.0687103 0.086274445 -0.12164651 0.019627675
000260 5e 16 c5 3d 82 eb bf 3d 14 a7 2e 3d ca 30 e9 bd
       0.09623407 0.093710914 0.042639807 -0.11386259
000270 a0 d3 83 3c 90 0c 34 bd 9c ed 0f bd 30 25 c4 3d
       0.016092122 -0.043957293 -0.03513871 0.095774055
000280 d4 ff 2d bd f8 56 b7 bd 3e 80 cd bd 5e a2 a1 3d
       -0.042480305 -0.08952135 -0.10034226 0.07892297
000290 80 a4 c5 3b 9c d7 fc 3d 58 69 d1 3c 3a 92 ee bd
       0.006031573 0.12345812 0.025562927 -0.11648984
0002a0 70 58 fd 3c 54 40 ea 3d 5e c7 9e 3d 58 a5 19 3d
       0.03092596 0.11438051 0.0775287 0.0375112
0002b0 76 55 c0 bd a6 81 99 bd e2 d3 ad 3d 2a 2d ab bd
       -0.093913004 -0.074954316 0.08487679 -0.08358224
0002c0 d0 9b e9 3c b0 32 83 bc b0 8f 2b 3d 40 01 06 3c
       0.02851668 -0.01601538 0.041885078 0.008179009
0002d0 d4 fc c2 bd 58 16 4c bd ec 47 df 3d f0 14 71 3c
       -0.095208794 -0.049825996 0.1090239 0.014714465
0002e0 5c ce 81 3d 18 27 81 bd f6 a8 ca 3d 90 33 db bc
       0.06338188 -0.06306285 0.09895508 -0.026757985
0002f0 a0 93 2c bd 18 b9 cf 3c d8 74 37 bd 38 bf 4d bd
       -0.042132974 0.025356814 -0.044789165 -0.05023119
000300 90 87 92 bc a0 d7 e9 bb d8 99 91 bd 30 02 2f 3d
       -0.017886907 -0.0071363 -0.071094215 0.042726696
000310 56 1c f8 bd 24 26 9d 3d 42 6e ed 3d 68 aa a5 3c
       -0.1211478 0.0767329 0.11593296 0.020222858
000320 20 44 ef bc 7a 78 ea bd bc 6f 70 3d e8 c2 d1 3d
       -0.02920729 -0.1144876 0.05870031 0.102422535
000330 66 dc da 3d d0 9e 36 3c 68 38 2a 3d 38 4d f5 3d
       0.10686569 0.011146262 0.0415577 0.11977619
000340 70 d7 98 3c 94 2d 77 bd bc 0d f3 bd 1c da 5f 3d
       0.018657416 -0.0603462 -0.11867854 0.054651365
000350 3c 72 47 3d d2 80 e3 3d ba 54 82 bd 74 ea 5b 3d
       0.048692927 0.11108555 -0.063638166 0.05369039
000360 bc 65 29 bd f8 7f fe bc 60 5f 95 3d 68 ab ea bd
       -0.041356787 -0.03106688 0.07293582 -0.114584744
000370 06 b5 bc 3d 64 21 6e 3d 50 25 98 bd ba a2 82 3d
       0.09214215 0.058137313 -0.07428992 0.06378694
000380 d8 c8 00 bd 60 50 38 3c 88 0a 09 bd 2a a7 fa bd
       -0.03144154 0.011249632 -0.03345731 -0.12238915
000390 70 1b 54 bc 98 d0 79 3d 40 47 6e bc 88 1d 7c bd
       -0.012945995 0.060989946 -0.0145433545 -0.0615516
0003a0 c0 c8 81 3b f0 dd ba 3c 24 db 0e bd 20 86 c6 bd
       0.003960699 0.022810906 -0.034876958 -0.09693551
0003b0 ae 40 89 bd 20 f2 a6 bc a4 64 38 3d 6e a7 e3 3d
       -0.0670179 -0.020379126 0.045017853 0.11115919
0003c0 c0 08 18 3b 4c 51 37 3d 86 4b 93 3d 2c 42 5f bd
       0.0023198575 0.044755265 0.07192139 -0.054506466
0003d0 e8 e3 29 bd 6a ce a9 3d 00 4b b7 3d 58 a5 f2 3c
       -0.041477114 0.082913235 0.08949852 0.029619858
0003e0 12 d5 c5 bd 58 4d 91 3d 2e 95 d3 bd b8 e8 7f 3d
       -0.096597806 0.0709483 -0.10331188 0.062477797
0003f0 a0 b7 72 3c 30 62 25 3d 14 89 f9 bd ac 01 34 bd
       0.014814287 0.040376842 -0.12184349 -0.043946907

spatial_encoder.attention.out_proj.bias f4 [64]
000000 00 00 00 00 00 00 00 00 00 00 00 00 00 00 00 00
       0.0 0.0 0.0 0.0
000010 00 00 00 00 00 00 00 00 00 00 00 00 00 00 00 00
       0.0 0.0 0.0 0.0
000020 00 00 00 00 00 00 00 00 00 00 00 00 00 00 00 00
       0.0 0.0 0.0 0.0
000030 00 00 00 00 00 00 00 00 00 00 00 00 00 00 00 00
       0.0 0.0 0.0 0.0
000040 00 00 00 00 00 00 00 00 00 00 00 00 00 00 00 00
       0.0 0.0 0.0 0.0
000050 00 00 00 00 00 00 00 00 00 00 00 00 00 00 00 00
       0.0 0.0 0.0 0.0
000060 00 00 00 00 00 00 00 00 00 00 00 00 00 00 00 00
       0.0 0.0 0.0 0.0
000070 00 00 00 00 00 00 00 00 00 00 00 00 00 00 00 00
       0.0 0.0 0.0 0.0
000080 00 00 00 00 00 00 00 00 00 00 00 00 00 00 00 00
       0.0 0.0 0.0 0.0
000090 00 00 00 00 00 00 00 00 00 00 00 00 00 00 00 00
       0.0 0.0 0.0 0.0
0000a0 00 00 00 00 00 00 00 00 00 00 00 00 00 00 00 00
       0.0 0.0 0.0 0.0
0000b0 00 00 00 00 00 00 00 00 00 00 00 00 00 00 00 00
       0.0 0.0 0.0 0.0
0000c0 00 00 00 00 00 00 00 00 00 00 00 00 00 00 00 00
       0.0 0.0 0.0 0.0
0000d0 00 00 00 00 00 00 00 00 00 00 00 00 00 00 00 00
       0.0 0.0 0.0 0.0
0000e0 00 00 00 00 00 00 00 00 00 00 00 00 00 00 00 00
       0.0 0.0 0.0 0.0
0000f0 00 00 00 00 00 00 00 00 00 00 00 00 00 00 00 00
       0.0 0.0 0.0 0.0

spatial_encoder.query_proj.weight f4 [64, 64]
000000 6c 57 69 3b 8b 68 1c 3d d6 bb 5a bd f8 01 36 3d
       0.0035605086 0.038185637 -0.05340179 0.04443547
000010 99 c3 4c bd 0b f4 25 3e 1a 79 14 bd 05 cd 8a 3d
       -0.049991224 0.16206376 -0.036248304 0.067773856
000020 99 5a 41 3e 10 d0 2b 3d d0 82 0e 3e 3d 60 0f 3d
       0.18882217 0.04194647 0.13917089 0.03500389
000030 5d ef 05 3e 65 33 5c 3e 95 68 89 3b ef 53 c0 3d
       0.13079591 0.2150398 0.0041933754 0.09391009
000040 da c8 6a 3c b7 44 8b 3e 2d 94 d1 bd 17 3d 29 3e
       0.014330113 0.27200863 -0.102333404 0.1652721
000050 fc b8 c9 3b f6 b4 ac bd 86 fe 0e bd 4e 22 2d be
       0.006156085 -0.08432953 -0.0349107 -0.16907617
000060 ba 9d ce 3c c0 07 df 3b 75 71 20 bd 96 33 20 3c
       0.025221694 0.006806344 -0.0391707 0.009777924
000070 5d 89 79 bd 39 c6 f2 3c 06 e9 3c bd a4 b4 b0 3d
       -0.060922015 0.029635536 -0.046120666 0.086282045
000080 e2 93 57 bd 27 40 90 bd 74 67 d2 bb 46 7b 74 3c
       -0.052631266 -0.07043486 -0.006421024 0.014921969
000090 70 32 65 3c c3 18 d8 3c 60 48 aa bd 3b fa 13 be
       0.013989076 0.026378995 -0.08314586 -0.14450924
0000a0 29 9a 9e 3d 07 84 b6 3d 3e d4 b6 bd b3 e0 20 3e
       0.077442475 0.08911901 -0.08927201 0.15710716
0000b0 f2 a6 fb bc 5c a9 bb 3d 94 b6 cf bc c1 56 c8 3d
       -0.030719254 0.09163162 -0.025355615 0.09782172
0000c0 8f 21 a9 bd 35 ce a7 bd 6a 50 ac 3d bb f0 d7 3d
       -0.08258354 -0.08193628 0.08413775 0.105439626
0000d0 b7 d8 0d 3e 8d 40 29 3e 64 13 93 bd 4c 83 10 be
       0.13852201 0.1652853 -0.07181433 -0.14112586
0000e0 09 76 f6 3d 00 c1 a6 bc 02 1e d0 3d 0e cc d8 bc
       0.12034232 -0.020355701 0.101619735 -0.026464488
0000f0 92 e9 2d 3e 14 67 4e 3d 4c b5 85 bd 70 6f 86 bc
       0.16983631 0.05039127 -0.0652872 -0.01641056
000100 ca 9b 05 be c5 30 75 3d f3 b4 92 bd 79 4f 5e bd
       -0.1304771 0.059860963 -0.071634196 -0.05427501
000110 44 85 f6 bd 49 24 b2 bd 97 22 a5 3d eb 44 bf bc
       -0.12037137 -0.08698327 0.08063238 -0.023348292
000120 44 3a ca 3d 7e 33 00 bd 6f 78 cf bb fe 74 82 bd
       0.098743945 -0.031299107 -0.0063314955 -0.06369971
000130 4d 82 d1 bd 09 3b 91 3d 6f 4e 0e bc e5 25 9e 3d
       -0.10229931 0.07091338 -0.008685692 0.077220716
000140 0e 99 0c be 11 b3 77 3d 6d b9 9a 3d 85 e2 8e bc
       -0.1373026 0.060473505 0.075548984 -0.017441997
000150 de 42 29 3d da 6a 0d be a1 b9 8a bd 34 92 9f 3d
       0.041323535 -0.13810292 -0.06773687 0.07791558
000160 c6 39 a3 3d 5f c5 6e 3d ed 66 8b 3d 1a 4d 65 bd
       0.07970004 0.058293696 0.06806741 -0.055981733
000170 77 07 16 bd b5 d7 e2 3d e8 50 71 bc 9b fe 27 3d
       -0.036628213 0.11076299 -0.014728762 0.041014295
000180 4d c2 ec bd 99 9e bf 3d dc db 82 bd e6 11 c6 bc
       -0.115604974 0.09356422 -0.06389591 -0.024178457
000190 85 f1 61 bd 59 5e 8d 3d c0 50 b4 bd 36 db 93 3d
       -0.05516197 0.06902761 -0.08804464 0.072195455
0001a0 9b fd e4 3d 6a 06 99 bd 4f ee a5 bd 54 e9 59 3d
       0.11181184 -0.074719265 -0.081020944 0.053201035
0001b0 1c 2d bc bd 0f 86 f1 bd 47 e9 70 3d 4a 3e 0a bd
       -0.091882914 -0.11793148 0.05881622 -0.03375081
0001c0 ed 07 6c 3c 08 5d 24 bc da 7e 4c bd ea 33 ed bc
       0.0144061865 -0.010031946 -0.049925663 -0.028955419
0001d0 f0 26 92 3d bd c4 9e bd dd 4f 44 ba 60 d5 65 bc
       0.07136333 -0.077523686 -0.0007488707 -0.014027923
0001e0 a6 4f 21 bd 14 67 2e 3e b0 e8 be bd 5f 22 a6 bd
       -0.0393826 0.17031509 -0.09321725 -0.081120245
0001f0 ca 50 5e bd 86 93 1f 3d 42 53 f6 bd 92 41 d4 3d
       -0.054276265 0.03895905 -0.12027599 0.10364069
000200 68 3c 15 3d dc d7 14 3e f9 06 fd 3d e0 67 d4 3d
       0.03643456 0.14535469 0.123548456 0.10371375
000210 15 95 2c be 65 47 92 3d 3e 1b 03 3d ac 0c 96 3d
       -0.16853745 0.07142524 0.032008402 0.07326636
000220 4d 82 e8 bc f8 2e f2 3d 61 eb cf 3d d7 e3 4b 3c
       -0.028382445 0.11825365 0.10152317 0.012444458
000230 5a 4d d9 bb 56 89 20 bd 00 be 3f 3e 6b a5 5c bd
       -0.0066315355 -0.039193474 0.18724823 -0.053868692
000240 1e f5 10 be 4e f0 60 3e 51 84 6b bd fc cf f6 3d
       -0.14156005 0.21966669 -0.057499234 0.120513886
000250 b6 d8 fa 3d 82 ec 4f bd 98 4a 9a bc 38 e6 3a bb
       0.122483656 -0.05076266 -0.018834397 -0.0028518569
000260 e4 a9 83 3c 92 48 94 3d 49 8c 16 bc ba 4f e8 bd
       0.016072221 0.07240404 -0.00918872 -0.11343332
000270 eb 13 4f bd a1 0c 2d be 0c c1 b7 3c f6 cd 37 bc
       -0.050556105 -0.16899349 0.02243092 -0.0112185385
000280 f6 05 13 3d f4 51 1f bb 49 29 e3 bd 9c b1 44 bd
       0.035894357 -0.0024310322 -0.11091859 -0.048020944
000290 3b 8b 41 3d e7 83 ad 3d a7 d8 bc 3b ff 54 38 bd
       0.04725192 0.08472424 0.0057631317 -0.045002934
0002a0 14 f7 2e bd b9 f9 41 3c 7b a3 f5 bc 65 e9 e2 3d
       -0.0427161 0.011839324 -0.02998518 0.11079673
0002b0 bf 0c 28 be 5d c4 52 3d 97 8d 02 3d a7 47 b3 bd
       -0.16411112 0.051456798 0.03187331 -0.08753901
0002c0 15 a6 1c 3c f6 48 9e bb cb de 5a 3d 95 4f c9 bc
       0.009561081 -0.004830475 0.05343513 -0.02457408
0002d0 a7 75 ec 3d 57 c8 b4 bb 6b 42 a2 bd 6a de 4e 3c
       0.11545878 -0.0055170464 -0.079228245 0.01262627
0002e0 31 ba 19 3d d5 3d e1 3d ba 36 a6 3c d1 46 84 bd
       0.03753108 0.10998122 0.020289768 -0.0645882
0002f0 03 a6 24 bd c5 3f 62 bd be db e3 bd e8 a3 06 3e
       -0.040197384 -0.055236597 -0.11125897 0.13148463
000300 18 34 5b 3c d6 08 e0 3d 77 60 a8 bd ce c2 a7 3d
       0.013379119 0.10939185 -0.08221524 0.08191453
000310 aa 57 b8 3c ec 00 96 3d 9b 18 89 3b 5e f0 da 3d
       0.022502739 0.073243946 0.0041838414 0.10690378
000320 de dc 9f 3d 57 fe db 3c 2d 43 25 3e ab df 1f be
       0.07805799 0.026854677 0.16138907 -0.15612666
000330 ec 44 de bc e9 dd 40 3e 9c 72 f0 3c 4f 17 12 3d
       -0.027132474 0.18834652 0.029351525 0.03566676
000340 3a 4c f4 3a 22 86 17 3e 03 08 13 3d 11 ce 9a bc
       0.001863844 0.14797261 0.035896312 -0.018897088
000350 60 b8 1a 3e d5 8d e8 bd e4 13 1c 3e 0c 0e 13 be
       0.15109396 -0.11355177 0.15241963 -0.14360827
000360 03 a1 35 3a 9c d9 57 bd 63 2c 03 3e 22 79 af 3c
       0.00069285947 -0.052697763 0.12809901 0.021420065
000370 cf 82 ef 3c 0e 29 eb bb fb 84 06 3d b6 14 5d 3c
       0.02923718 -0.007176525 0.032841664 0.013493707
000380 f5 fc e8 3d 3a 86 c6 3b f8 a0 bd bb 10 7d 06 3e
       0.11376373 0.0060584815 -0.0057870112 0.13133645
000390 d6 67 0c 3e 31 4c 72 bd 5b 8d 73 3d 4f 4c c6 bd
       0.13711485 -0.059154693 0.05946098 -0.096825235
0003a0 28 5e 2a bd c7 77 4a 3e 71 04 2c 3d 5f 6b 3e bd
       -0.0415937 0.19772254 0.041996423 -0.046489116
0003b0 f3 61 81 bd db de e6 bc 45 21 27 bd 44 53 a7 3d
       -0.063175105 -0.028182438 -0.040803213 0.081701785
0003c0 53 0b 66 bd cc 25 20 bd 64 45 ed bd fc 88 56 bd
       -0.056163143 -0.039098546 -0.11585501 -0.052376732
0003d0 68 40 71 bd 1e c8 1f 3e 3d d4 4e bb 13 1b ef bc
       -0.058899313 0.15603682 -0.003155961 -0.029187715
0003e0 03 77 4c 3e 8a 5b a9 bc 4d 97 47 3e 0d 52 a6 3b
       0.19967274 -0.020673532 0.1949131 0.005075699
0003f0 9d a9 8a 3c 22 f0 3b bd be dd 91 bd d3 4b 8b 3d
       0.016926581 -0.045883305 -0.07122372 0.06801572

spatial_encoder.query_proj.bias f4 [64]
000000 8b 7e 7c 3d 7f a0 0a be 33 10 93 bd 57 97 11 be
       0.06164412 -0.13537787 -0.07180824 -0.14217888
000010 de b2 c9 3d b4 b2 1a bb 8c 37 04 be 4c 45 d8 bd
       0.09848569 -0.002360505 -0.12911814 -0.10560092
000020 71 ea fb 3d 1e 0c 0d 3e 95 9a b1 3d 87 28 ff bd
       0.123005755 0.13774154 0.08672062 -0.12458902
000030 09 2e b6 bd c4 2e 31 3d 4a f3 22 3d c5 da cd bd
       -0.08895499 0.04325749 0.0397828 -0.100514926
000040 1d 23 c6 3d 67 ed aa bd 3e d2 ca 3d 05 c1 96 3d
       0.09674666 -0.08346062 0.09903382 0.07361034
000050 f6 66 d9 bd 5a 2a 0c be 26 5e d4 bd d1 c2 f4 3d
       -0.10615341 -0.13688031 -0.1036952 0.11951221
000060 a2 67 ff bd 4a 4b a8 3c 30 e1 59 bd 6b 3b 3b bc
       -0.12470938 0.020543713 -0.05319327 -0.011427741
000070 92 f1 53 bd f4 ee de bd 7c 38 06 be 9e 36 8d bc
       -0.05174405 -0.108854204 -0.13107485 -0.017237958
000080 35 a8 3d 3d 22 9b 79 3d 7c 94 b8 3d 0b 7a 53 bd
       0.046302993 0.06093896 0.09012696 -0.05163006
000090 3e 3e c8 ba fc 08 0f 3e 72 12 0b bd 99 35 ac 3d
       -0.0015277339 0.13968271 -0.033953138 0.084086604
0000a0 9f ab bb 3c d5 74 44 bc ff ca fb bd b3 cc 80 3c
       0.022908984 -0.011990746 -0.12294578 0.015722608
0000b0 b2 fe f0 3d 5d 66 52 3d 62 d3 bc 3d e3 0e 3c be
       0.11767329 0.051367152 0.092200056 -0.18365054
0000c0 9b ec 42 3d f3 6e d2 3c 47 42 01 3d 71 98 5d bd
       0.047588926 0.02568767 0.031557348 -0.054100458
0000d0 fa ae 0d be 39 77 d0 bc 04 85 db bd f6 64 cf 3d
       -0.1383628 -0.025447475 -0.1071873 0.10126679
0000e0 fd c3 23 3e 29 7e e6 3c 17 fd 45 be 16 56 de bd
       0.15992732 0.02813633 -0.19334827 -0.10856263
0000f0 05 9f d2 b9 cd 1e b2 bd c3 3b 1f 3e 09 31 05 bd
       -0.000401728 -0.08697281 0.15550141 -0.032517467
